…
:) setExprDatasetFiles
Batch size: 8
LABEL_DIM 5
inputshape (1170, 1025)
Model: "model"
__________________________________________________________________________________________________
 Layer (type)                Output Shape                 Param #   Connected to                  
==================================================================================================
 input (InputLayer)          [(None, 1170, 1025)]         0         []                            
                                                                                                  
 conv1d (Conv1D)             (None, 1170, 64)             459200    ['input[0][0]']               
                                                                                                  
 dropout (Dropout)           (None, 1170, 64)             0         ['conv1d[0][0]']              
                                                                                                  
 batch_normalization (Batch  (None, 1170, 64)             256       ['dropout[0][0]']             
 Normalization)                                                                                   
                                                                                                  
 activation (Activation)     (None, 1170, 64)             0         ['batch_normalization[0][0]'] 
                                                                                                  
 conv1d_1 (Conv1D)           (None, 1170, 128)            57344     ['activation[0][0]']          
                                                                                                  
 dropout_1 (Dropout)         (None, 1170, 128)            0         ['conv1d_1[0][0]']            
                                                                                                  
 batch_normalization_1 (Bat  (None, 1170, 128)            512       ['dropout_1[0][0]']           
 chNormalization)                                                                                 
                                                                                                  
 activation_1 (Activation)   (None, 1170, 128)            0         ['batch_normalization_1[0][0]'
                                                                    ]                             
                                                                                                  
 conv1d_2 (Conv1D)           (None, 1170, 128)            114688    ['activation_1[0][0]']        
                                                                                                  
 dropout_2 (Dropout)         (None, 1170, 128)            0         ['conv1d_2[0][0]']            
                                                                                                  
 batch_normalization_2 (Bat  (None, 1170, 128)            512       ['dropout_2[0][0]']           
 chNormalization)                                                                                 
                                                                                                  
 activation_2 (Activation)   (None, 1170, 128)            0         ['batch_normalization_2[0][0]'
                                                                    ]                             
                                                                                                  
 conv1d_3 (Conv1D)           (None, 1170, 64)             57344     ['activation_2[0][0]']        
                                                                                                  
 dropout_3 (Dropout)         (None, 1170, 64)             0         ['conv1d_3[0][0]']            
                                                                                                  
 batch_normalization_3 (Bat  (None, 1170, 64)             256       ['dropout_3[0][0]']           
 chNormalization)                                                                                 
                                                                                                  
 activation_3 (Activation)   (None, 1170, 64)             0         ['batch_normalization_3[0][0]'
                                                                    ]                             
                                                                                                  
 conv1d_4 (Conv1D)           (None, 1170, 64)             28672     ['activation_3[0][0]']        
                                                                                                  
 dropout_4 (Dropout)         (None, 1170, 64)             0         ['conv1d_4[0][0]']            
                                                                                                  
 batch_normalization_4 (Bat  (None, 1170, 64)             256       ['dropout_4[0][0]']           
 chNormalization)                                                                                 
                                                                                                  
 activation_4 (Activation)   (None, 1170, 64)             0         ['batch_normalization_4[0][0]'
                                                                    ]                             
                                                                                                  
 conv1d_5 (Conv1D)           (None, 1170, 64)             28672     ['activation_4[0][0]']        
                                                                                                  
 dropout_5 (Dropout)         (None, 1170, 64)             0         ['conv1d_5[0][0]']            
                                                                                                  
 batch_normalization_5 (Bat  (None, 1170, 64)             256       ['dropout_5[0][0]']           
 chNormalization)                                                                                 
                                                                                                  
 conv1d_7 (Conv1D)           (None, 1170, 64)             28672     ['activation_4[0][0]']        
                                                                                                  
 conv1d_8 (Conv1D)           (None, 1170, 64)             28672     ['activation_4[0][0]']        
                                                                                                  
 conv1d_9 (Conv1D)           (None, 1170, 64)             28672     ['activation_4[0][0]']        
                                                                                                  
 activation_5 (Activation)   (None, 1170, 64)             0         ['batch_normalization_5[0][0]'
                                                                    ]                             
                                                                                                  
 conv1d_6 (Conv1D)           (None, 1170, 64)             28672     ['activation_4[0][0]']        
                                                                                                  
 dropout_7 (Dropout)         (None, 1170, 64)             0         ['conv1d_7[0][0]']            
                                                                                                  
 dropout_8 (Dropout)         (None, 1170, 64)             0         ['conv1d_8[0][0]']            
                                                                                                  
 dropout_9 (Dropout)         (None, 1170, 64)             0         ['conv1d_9[0][0]']            
                                                                                                  
 conv1d_10 (Conv1D)          (None, 1170, 32)             14336     ['activation_5[0][0]']        
                                                                                                  
 dropout_6 (Dropout)         (None, 1170, 64)             0         ['conv1d_6[0][0]']            
                                                                                                  
 batch_normalization_7 (Bat  (None, 1170, 64)             256       ['dropout_7[0][0]']           
 chNormalization)                                                                                 
                                                                                                  
 batch_normalization_8 (Bat  (None, 1170, 64)             256       ['dropout_8[0][0]']           
 chNormalization)                                                                                 
                                                                                                  
 batch_normalization_9 (Bat  (None, 1170, 64)             256       ['dropout_9[0][0]']           
 chNormalization)                                                                                 
                                                                                                  
 dropout_10 (Dropout)        (None, 1170, 32)             0         ['conv1d_10[0][0]']           
                                                                                                  
 batch_normalization_6 (Bat  (None, 1170, 64)             256       ['dropout_6[0][0]']           
 chNormalization)                                                                                 
                                                                                                  
 activation_7 (Activation)   (None, 1170, 64)             0         ['batch_normalization_7[0][0]'
                                                                    ]                             
                                                                                                  
 activation_8 (Activation)   (None, 1170, 64)             0         ['batch_normalization_8[0][0]'
                                                                    ]                             
                                                                                                  
 activation_9 (Activation)   (None, 1170, 64)             0         ['batch_normalization_9[0][0]'
                                                                    ]                             
                                                                                                  
 batch_normalization_10 (Ba  (None, 1170, 32)             128       ['dropout_10[0][0]']          
 tchNormalization)                                                                                
                                                                                                  
 activation_6 (Activation)   (None, 1170, 64)             0         ['batch_normalization_6[0][0]'
                                                                    ]                             
                                                                                                  
 conv1d_12 (Conv1D)          (None, 1170, 32)             14336     ['activation_7[0][0]']        
                                                                                                  
 conv1d_13 (Conv1D)          (None, 1170, 32)             14336     ['activation_8[0][0]']        
                                                                                                  
 conv1d_14 (Conv1D)          (None, 1170, 32)             14336     ['activation_9[0][0]']        
                                                                                                  
 activation_10 (Activation)  (None, 1170, 32)             0         ['batch_normalization_10[0][0]
                                                                    ']                            
                                                                                                  
 conv1d_11 (Conv1D)          (None, 1170, 32)             14336     ['activation_6[0][0]']        
                                                                                                  
 dropout_12 (Dropout)        (None, 1170, 32)             0         ['conv1d_12[0][0]']           
                                                                                                  
 dropout_13 (Dropout)        (None, 1170, 32)             0         ['conv1d_13[0][0]']           
                                                                                                  
 dropout_14 (Dropout)        (None, 1170, 32)             0         ['conv1d_14[0][0]']           
                                                                                                  
 time_distributed (TimeDist  (None, 1170, 32)             1056      ['activation_10[0][0]']       
 ributed)                                                                                         
                                                                                                  
 dropout_11 (Dropout)        (None, 1170, 32)             0         ['conv1d_11[0][0]']           
                                                                                                  
 batch_normalization_12 (Ba  (None, 1170, 32)             128       ['dropout_12[0][0]']          
 tchNormalization)                                                                                
                                                                                                  
 batch_normalization_13 (Ba  (None, 1170, 32)             128       ['dropout_13[0][0]']          
 tchNormalization)                                                                                
                                                                                                  
 batch_normalization_14 (Ba  (None, 1170, 32)             128       ['dropout_14[0][0]']          
 tchNormalization)                                                                                
                                                                                                  
 batch_normalization_15 (Ba  (None, 1170, 32)             128       ['time_distributed[0][0]']    
 tchNormalization)                                                                                
                                                                                                  
 batch_normalization_11 (Ba  (None, 1170, 32)             128       ['dropout_11[0][0]']          
 tchNormalization)                                                                                
                                                                                                  
 activation_12 (Activation)  (None, 1170, 32)             0         ['batch_normalization_12[0][0]
                                                                    ']                            
                                                                                                  
 activation_13 (Activation)  (None, 1170, 32)             0         ['batch_normalization_13[0][0]
                                                                    ']                            
                                                                                                  
 activation_14 (Activation)  (None, 1170, 32)             0         ['batch_normalization_14[0][0]
                                                                    ']                            
                                                                                                  
 activation_15 (Activation)  (None, 1170, 32)             0         ['batch_normalization_15[0][0]
                                                                    ']                            
                                                                                                  
 activation_11 (Activation)  (None, 1170, 32)             0         ['batch_normalization_11[0][0]
                                                                    ']                            
                                                                                                  
 time_distributed_2 (TimeDi  (None, 1170, 32)             1056      ['activation_12[0][0]']       
 stributed)                                                                                       
                                                                                                  
 time_distributed_3 (TimeDi  (None, 1170, 32)             1056      ['activation_13[0][0]']       
 stributed)                                                                                       
                                                                                                  
 time_distributed_4 (TimeDi  (None, 1170, 32)             1056      ['activation_14[0][0]']       
 stributed)                                                                                       
                                                                                                  
 time_distributed_5 (TimeDi  (None, 1170, 32)             1056      ['activation_15[0][0]']       
 stributed)                                                                                       
                                                                                                  
 time_distributed_1 (TimeDi  (None, 1170, 32)             1056      ['activation_11[0][0]']       
 stributed)                                                                                       
                                                                                                  
 batch_normalization_17 (Ba  (None, 1170, 32)             128       ['time_distributed_2[0][0]']  
 tchNormalization)                                                                                
                                                                                                  
 batch_normalization_18 (Ba  (None, 1170, 32)             128       ['time_distributed_3[0][0]']  
 tchNormalization)                                                                                
                                                                                                  
 batch_normalization_19 (Ba  (None, 1170, 32)             128       ['time_distributed_4[0][0]']  
 tchNormalization)                                                                                
                                                                                                  
 batch_normalization_20 (Ba  (None, 1170, 32)             128       ['time_distributed_5[0][0]']  
 tchNormalization)                                                                                
                                                                                                  
 batch_normalization_16 (Ba  (None, 1170, 32)             128       ['time_distributed_1[0][0]']  
 tchNormalization)                                                                                
                                                                                                  
 activation_17 (Activation)  (None, 1170, 32)             0         ['batch_normalization_17[0][0]
                                                                    ']                            
                                                                                                  
 activation_18 (Activation)  (None, 1170, 32)             0         ['batch_normalization_18[0][0]
                                                                    ']                            
                                                                                                  
 activation_19 (Activation)  (None, 1170, 32)             0         ['batch_normalization_19[0][0]
                                                                    ']                            
                                                                                                  
 activation_20 (Activation)  (None, 1170, 32)             0         ['batch_normalization_20[0][0]
                                                                    ']                            
                                                                                                  
 activation_16 (Activation)  (None, 1170, 32)             0         ['batch_normalization_16[0][0]
                                                                    ']                            
                                                                                                  
 time_distributed_7 (TimeDi  (None, 1170, 32)             1056      ['activation_17[0][0]']       
 stributed)                                                                                       
                                                                                                  
 time_distributed_8 (TimeDi  (None, 1170, 32)             1056      ['activation_18[0][0]']       
 stributed)                                                                                       
                                                                                                  
 time_distributed_9 (TimeDi  (None, 1170, 32)             1056      ['activation_19[0][0]']       
 stributed)                                                                                       
                                                                                                  
 time_distributed_10 (TimeD  (None, 1170, 16)             528       ['activation_20[0][0]']       
 istributed)                                                                                      
                                                                                                  
 time_distributed_6 (TimeDi  (None, 1170, 32)             1056      ['activation_16[0][0]']       
 stributed)                                                                                       
                                                                                                  
 batch_normalization_22 (Ba  (None, 1170, 32)             128       ['time_distributed_7[0][0]']  
 tchNormalization)                                                                                
                                                                                                  
 batch_normalization_23 (Ba  (None, 1170, 32)             128       ['time_distributed_8[0][0]']  
 tchNormalization)                                                                                
                                                                                                  
 batch_normalization_24 (Ba  (None, 1170, 32)             128       ['time_distributed_9[0][0]']  
 tchNormalization)                                                                                
                                                                                                  
 batch_normalization_25 (Ba  (None, 1170, 16)             64        ['time_distributed_10[0][0]'] 
 tchNormalization)                                                                                
                                                                                                  
 batch_normalization_21 (Ba  (None, 1170, 32)             128       ['time_distributed_6[0][0]']  
 tchNormalization)                                                                                
                                                                                                  
 activation_22 (Activation)  (None, 1170, 32)             0         ['batch_normalization_22[0][0]
                                                                    ']                            
                                                                                                  
 activation_23 (Activation)  (None, 1170, 32)             0         ['batch_normalization_23[0][0]
                                                                    ']                            
                                                                                                  
 activation_24 (Activation)  (None, 1170, 32)             0         ['batch_normalization_24[0][0]
                                                                    ']                            
                                                                                                  
 activation_25 (Activation)  (None, 1170, 16)             0         ['batch_normalization_25[0][0]
                                                                    ']                            
                                                                                                  
 activation_21 (Activation)  (None, 1170, 32)             0         ['batch_normalization_21[0][0]
                                                                    ']                            
                                                                                                  
 concatenate (Concatenate)   (None, 1170, 96)             0         ['activation_22[0][0]',       
                                                                     'activation_23[0][0]',       
                                                                     'activation_24[0][0]']       
                                                                                                  
 ppi (TimeDistributed)       (None, 1170, 1)              17        ['activation_25[0][0]']       
                                                                                                  
 rsa (TimeDistributed)       (None, 1170, 1)              33        ['activation_21[0][0]']       
                                                                                                  
 SS3 (TimeDistributed)       (None, 1170, 3)              291       ['concatenate[0][0]']         
                                                                                                  
==================================================================================================
Total params: 948773 (7.24 MB)
Trainable params: 946245 (7.22 MB)
Non-trainable params: 2528 (19.75 KB)
__________________________________________________________________________________________________
…
