
## Starting Training & Testing;; @@ trained on: ../data/prepared_epitope_training.csv at: 12-06-2023#13:31:50 @@
## tf-version: 2.4.1|| keras-version: 2.4.0|| float_type: float64
Model: "model"
_________________________________________________________________
Layer (type)                 Output Shape              Param #   
=================================================================
input_1 (InputLayer)         [(None, 1170, 21)]        0         
_________________________________________________________________
conv1d (Conv1D)              (None, 1170, 64)          9408      
_________________________________________________________________
dropout (Dropout)            (None, 1170, 64)          0         
_________________________________________________________________
batch_normalization (BatchNo (None, 1170, 64)          256       
_________________________________________________________________
p_re_lu (PReLU)              (None, 1170, 64)          74880     
_________________________________________________________________
conv1d_1 (Conv1D)            (None, 1170, 128)         57344     
_________________________________________________________________
dropout_1 (Dropout)          (None, 1170, 128)         0         
_________________________________________________________________
batch_normalization_1 (Batch (None, 1170, 128)         512       
_________________________________________________________________
p_re_lu_1 (PReLU)            (None, 1170, 128)         149760    
_________________________________________________________________
conv1d_2 (Conv1D)            (None, 1170, 128)         114688    
_________________________________________________________________
dropout_2 (Dropout)          (None, 1170, 128)         0         
_________________________________________________________________
batch_normalization_2 (Batch (None, 1170, 128)         512       
_________________________________________________________________
p_re_lu_2 (PReLU)            (None, 1170, 128)         149760    
_________________________________________________________________
conv1d_3 (Conv1D)            (None, 1170, 64)          57344     
_________________________________________________________________
dropout_3 (Dropout)          (None, 1170, 64)          0         
_________________________________________________________________
batch_normalization_3 (Batch (None, 1170, 64)          256       
_________________________________________________________________
p_re_lu_3 (PReLU)            (None, 1170, 64)          74880     
_________________________________________________________________
conv1d_4 (Conv1D)            (None, 1170, 32)          14336     
_________________________________________________________________
dropout_4 (Dropout)          (None, 1170, 32)          0         
_________________________________________________________________
batch_normalization_4 (Batch (None, 1170, 32)          128       
_________________________________________________________________
p_re_lu_4 (PReLU)            (None, 1170, 32)          37440     
_________________________________________________________________
time_distributed (TimeDistri (None, 1170, 1)           33        
=================================================================
Total params: 741,537
Trainable params: 740,705
Non-trainable params: 832
_________________________________________________________________

## Starting Training & Testing;; @@ trained on: ../data/prepared_epitope_training.csv at: 12-06-2023#13:37:19 @@
## tf-version: 2.4.1|| keras-version: 2.4.0|| float_type: float64
Model: "model"
_________________________________________________________________
Layer (type)                 Output Shape              Param #   
=================================================================
input_1 (InputLayer)         [(None, 1170, 21)]        0         
_________________________________________________________________
conv1d (Conv1D)              (None, 1170, 64)          9408      
_________________________________________________________________
dropout (Dropout)            (None, 1170, 64)          0         
_________________________________________________________________
batch_normalization (BatchNo (None, 1170, 64)          256       
_________________________________________________________________
p_re_lu (PReLU)              (None, 1170, 64)          74880     
_________________________________________________________________
conv1d_1 (Conv1D)            (None, 1170, 128)         57344     
_________________________________________________________________
dropout_1 (Dropout)          (None, 1170, 128)         0         
_________________________________________________________________
batch_normalization_1 (Batch (None, 1170, 128)         512       
_________________________________________________________________
p_re_lu_1 (PReLU)            (None, 1170, 128)         149760    
_________________________________________________________________
conv1d_2 (Conv1D)            (None, 1170, 128)         114688    
_________________________________________________________________
dropout_2 (Dropout)          (None, 1170, 128)         0         
_________________________________________________________________
batch_normalization_2 (Batch (None, 1170, 128)         512       
_________________________________________________________________
p_re_lu_2 (PReLU)            (None, 1170, 128)         149760    
_________________________________________________________________
conv1d_3 (Conv1D)            (None, 1170, 64)          57344     
_________________________________________________________________
dropout_3 (Dropout)          (None, 1170, 64)          0         
_________________________________________________________________
batch_normalization_3 (Batch (None, 1170, 64)          256       
_________________________________________________________________
p_re_lu_3 (PReLU)            (None, 1170, 64)          74880     
_________________________________________________________________
conv1d_4 (Conv1D)            (None, 1170, 32)          14336     
_________________________________________________________________
dropout_4 (Dropout)          (None, 1170, 32)          0         
_________________________________________________________________
batch_normalization_4 (Batch (None, 1170, 32)          128       
_________________________________________________________________
p_re_lu_4 (PReLU)            (None, 1170, 32)          37440     
_________________________________________________________________
time_distributed (TimeDistri (None, 1170, 1)           33        
=================================================================
Total params: 741,537
Trainable params: 740,705
Non-trainable params: 832
_________________________________________________________________
Shape featuresTable: (343, 1) | Shape labelvec: (343, 1)
Shape inputData: (343, 1170, 21)
Shape labelData: (343, 1170, 1)
Epoch: 00 Loss: 0.1756 valLoss: 0.1336 valAcc: 11.32% AUC: 51.78%
…
ValAcc: 87.02% specScore: 92.96% presScore: 17.98% recallScore: 17.98% F1Score: 17.98% MCC: 10.93% AUC: 67.56% AP: 14.66%

## Starting Training & Testing;; @@ trained on: ../data/prepared_epitope_training.csv at: 12-06-2023#14:31:13 @@
## tf-version: 2.12.0|| keras-version: 2.12.0|| float_type: float64
Model: "model"
_________________________________________________________________
 Layer (type)                Output Shape              Param #   
=================================================================
 input_1 (InputLayer)        [(None, 1170, 21)]        0         
                                                                 
 conv1d (Conv1D)             (None, 1170, 64)          9408      
                                                                 
 dropout (Dropout)           (None, 1170, 64)          0         
                                                                 
 batch_normalization (BatchN  (None, 1170, 64)         256       
 ormalization)                                                   
                                                                 
 p_re_lu (PReLU)             (None, 1170, 64)          74880     
                                                                 
 conv1d_1 (Conv1D)           (None, 1170, 128)         57344     
                                                                 
 dropout_1 (Dropout)         (None, 1170, 128)         0         
                                                                 
 batch_normalization_1 (Batc  (None, 1170, 128)        512       
 hNormalization)                                                 
                                                                 
 p_re_lu_1 (PReLU)           (None, 1170, 128)         149760    
                                                                 
 conv1d_2 (Conv1D)           (None, 1170, 128)         114688    
                                                                 
 dropout_2 (Dropout)         (None, 1170, 128)         0         
                                                                 
 batch_normalization_2 (Batc  (None, 1170, 128)        512       
 hNormalization)                                                 
                                                                 
 p_re_lu_2 (PReLU)           (None, 1170, 128)         149760    
                                                                 
 conv1d_3 (Conv1D)           (None, 1170, 64)          57344     
                                                                 
 dropout_3 (Dropout)         (None, 1170, 64)          0         
                                                                 
 batch_normalization_3 (Batc  (None, 1170, 64)         256       
 hNormalization)                                                 
                                                                 
 p_re_lu_3 (PReLU)           (None, 1170, 64)          74880     
                                                                 
 conv1d_4 (Conv1D)           (None, 1170, 32)          14336     
                                                                 
 dropout_4 (Dropout)         (None, 1170, 32)          0         
                                                                 
 batch_normalization_4 (Batc  (None, 1170, 32)         128       
 hNormalization)                                                 
                                                                 
 p_re_lu_4 (PReLU)           (None, 1170, 32)          37440     
                                                                 
 time_distributed (TimeDistr  (None, 1170, 1)          33        
 ibuted)                                                         
                                                                 
=================================================================
Total params: 741,537
Trainable params: 740,705
Non-trainable params: 832
_________________________________________________________________
Shape featuresTable: (343, 1) | Shape labelvec: (343, 1)
…
Shape inputData: (343, 1170, 21)
Shape labelData: (343, 1170, 1)

## Starting Training & Testing;; @@ trained on: ../data/prepared_epitope_training.csv at: 28-07-2023#12:02:31 @@
## tf-version: 2.4.1|| keras-version: 2.4.0|| float_type: float64
Model: "model"
_________________________________________________________________
Layer (type)                 Output Shape              Param #   
=================================================================
input_1 (InputLayer)         [(None, 1170, 21)]        0         
_________________________________________________________________
conv1d (Conv1D)              (None, 1170, 64)          9408      
_________________________________________________________________
dropout (Dropout)            (None, 1170, 64)          0         
_________________________________________________________________
batch_normalization (BatchNo (None, 1170, 64)          256       
_________________________________________________________________
p_re_lu (PReLU)              (None, 1170, 64)          74880     
_________________________________________________________________
conv1d_1 (Conv1D)            (None, 1170, 128)         57344     
_________________________________________________________________
dropout_1 (Dropout)          (None, 1170, 128)         0         
_________________________________________________________________
batch_normalization_1 (Batch (None, 1170, 128)         512       
_________________________________________________________________
p_re_lu_1 (PReLU)            (None, 1170, 128)         149760    
_________________________________________________________________
conv1d_2 (Conv1D)            (None, 1170, 128)         114688    
_________________________________________________________________
dropout_2 (Dropout)          (None, 1170, 128)         0         
_________________________________________________________________
batch_normalization_2 (Batch (None, 1170, 128)         512       
_________________________________________________________________
p_re_lu_2 (PReLU)            (None, 1170, 128)         149760    
_________________________________________________________________
conv1d_3 (Conv1D)            (None, 1170, 64)          57344     
_________________________________________________________________
dropout_3 (Dropout)          (None, 1170, 64)          0         
_________________________________________________________________
batch_normalization_3 (Batch (None, 1170, 64)          256       
_________________________________________________________________
p_re_lu_3 (PReLU)            (None, 1170, 64)          74880     
_________________________________________________________________
conv1d_4 (Conv1D)            (None, 1170, 32)          14336     
_________________________________________________________________
dropout_4 (Dropout)          (None, 1170, 32)          0         
_________________________________________________________________
batch_normalization_4 (Batch (None, 1170, 32)          128       
_________________________________________________________________
p_re_lu_4 (PReLU)            (None, 1170, 32)          37440     
_________________________________________________________________
time_distributed (TimeDistri (None, 1170, 1)           33        
=================================================================
Total params: 741,537
Trainable params: 740,705
Non-trainable params: 832
_________________________________________________________________
Shape featuresTable: (343, 1) | Shape labelvec: (343, 1)
Shape inputData: (343, 1170, 21)
Shape labelData: (343, 1170, 1)
Epoch: 00 Loss: 0.1756 valLoss: 0.1336 valAcc: 11.32% AUC: 51.78%
…
Shape inputData: (565, 1170, 1025)
Shape labelData: (565, 1170, 1)
Testing time: 0:00:07.729541

## Starting Training & Testing;; @@ trained on: ../data/prepared_epitope_training.csv at: 14-12-2023#15:16:19 @@
## tf-version: 2.14.0|| float_type: float64
Model: "model"
_________________________________________________________________
 Layer (type)                Output Shape              Param #   
=================================================================
 input_1 (InputLayer)        [(None, 1170, 1025)]      0         
                                                                 
 conv1d (Conv1D)             (None, 1170, 64)          459200    
                                                                 
 dropout (Dropout)           (None, 1170, 64)          0         
                                                                 
 batch_normalization (Batch  (None, 1170, 64)          256       
 Normalization)                                                  
                                                                 
 p_re_lu (PReLU)             (None, 1170, 64)          74880     
                                                                 
 conv1d_1 (Conv1D)           (None, 1170, 128)         57344     
                                                                 
 dropout_1 (Dropout)         (None, 1170, 128)         0         
                                                                 
 batch_normalization_1 (Bat  (None, 1170, 128)         512       
 chNormalization)                                                
                                                                 
 p_re_lu_1 (PReLU)           (None, 1170, 128)         149760    
                                                                 
 conv1d_2 (Conv1D)           (None, 1170, 128)         114688    
                                                                 
 dropout_2 (Dropout)         (None, 1170, 128)         0         
                                                                 
 batch_normalization_2 (Bat  (None, 1170, 128)         512       
 chNormalization)                                                
                                                                 
 p_re_lu_2 (PReLU)           (None, 1170, 128)         149760    
                                                                 
 conv1d_3 (Conv1D)           (None, 1170, 64)          57344     
                                                                 
 dropout_3 (Dropout)         (None, 1170, 64)          0         
                                                                 
 batch_normalization_3 (Bat  (None, 1170, 64)          256       
 chNormalization)                                                
                                                                 
 p_re_lu_3 (PReLU)           (None, 1170, 64)          74880     
                                                                 
 conv1d_4 (Conv1D)           (None, 1170, 32)          14336     
                                                                 
 dropout_4 (Dropout)         (None, 1170, 32)          0         
                                                                 
 batch_normalization_4 (Bat  (None, 1170, 32)          128       
 chNormalization)                                                
                                                                 
 p_re_lu_4 (PReLU)           (None, 1170, 32)          37440     
                                                                 
 time_distributed (TimeDist  (None, 1170, 1)           33        
 ributed)                                                        
                                                                 
=================================================================
Total params: 1191329 (9.09 MB)
Trainable params: 1190497 (9.08 MB)
Non-trainable params: 832 (6.50 KB)
_________________________________________________________________

## Starting Training & Testing;; @@ trained on: ../data/prepared_epitope_training.csv at: 14-12-2023#15:20:33 @@
…
