…
## Starting Training & Testing;; @@ trained on: ../data/prepared_epitope_training.csv at: 22-04-2024#16:44:24 @@
## tf-version: 2.14.0|| float_type: float64
Model: "model"
__________________________________________________________________________________________________
 Layer (type)                Output Shape                 Param #   Connected to                  
==================================================================================================
 input (InputLayer)          [(None, 1170, 1025)]         0         []                            
                                                                                                  
 conv1d (Conv1D)             (None, 1170, 64)             459200    ['input[0][0]']               
                                                                                                  
 dropout (Dropout)           (None, 1170, 64)             0         ['conv1d[0][0]']              
                                                                                                  
 batch_normalization (Batch  (None, 1170, 64)             256       ['dropout[0][0]']             
 Normalization)                                                                                   
                                                                                                  
 p_re_lu (PReLU)             (None, 1170, 64)             74880     ['batch_normalization[0][0]'] 
                                                                                                  
 conv1d_1 (Conv1D)           (None, 1170, 128)            57344     ['p_re_lu[0][0]']             
                                                                                                  
 dropout_1 (Dropout)         (None, 1170, 128)            0         ['conv1d_1[0][0]']            
                                                                                                  
 batch_normalization_1 (Bat  (None, 1170, 128)            512       ['dropout_1[0][0]']           
 chNormalization)                                                                                 
                                                                                                  
 p_re_lu_1 (PReLU)           (None, 1170, 128)            149760    ['batch_normalization_1[0][0]'
                                                                    ]                             
                                                                                                  
 conv1d_2 (Conv1D)           (None, 1170, 128)            114688    ['p_re_lu_1[0][0]']           
                                                                                                  
 dropout_2 (Dropout)         (None, 1170, 128)            0         ['conv1d_2[0][0]']            
                                                                                                  
 batch_normalization_2 (Bat  (None, 1170, 128)            512       ['dropout_2[0][0]']           
 chNormalization)                                                                                 
                                                                                                  
 p_re_lu_2 (PReLU)           (None, 1170, 128)            149760    ['batch_normalization_2[0][0]'
                                                                    ]                             
                                                                                                  
 conv1d_3 (Conv1D)           (None, 1170, 64)             57344     ['p_re_lu_2[0][0]']           
                                                                                                  
 dropout_3 (Dropout)         (None, 1170, 64)             0         ['conv1d_3[0][0]']            
                                                                                                  
 batch_normalization_3 (Bat  (None, 1170, 64)             256       ['dropout_3[0][0]']           
 chNormalization)                                                                                 
                                                                                                  
 p_re_lu_3 (PReLU)           (None, 1170, 64)             74880     ['batch_normalization_3[0][0]'
                                                                    ]                             
                                                                                                  
 conv1d_4 (Conv1D)           (None, 1170, 32)             14336     ['p_re_lu_3[0][0]']           
                                                                                                  
 dropout_4 (Dropout)         (None, 1170, 32)             0         ['conv1d_4[0][0]']            
                                                                                                  
 batch_normalization_4 (Bat  (None, 1170, 32)             128       ['dropout_4[0][0]']           
 chNormalization)                                                                                 
                                                                                                  
 p_re_lu_4 (PReLU)           (None, 1170, 32)             37440     ['batch_normalization_4[0][0]'
                                                                    ]                             
                                                                                                  
 conv1d_5 (Conv1D)           (None, 1170, 32)             7168      ['p_re_lu_4[0][0]']           
                                                                                                  
 dropout_5 (Dropout)         (None, 1170, 32)             0         ['conv1d_5[0][0]']            
                                                                                                  
 batch_normalization_5 (Bat  (None, 1170, 32)             128       ['dropout_5[0][0]']           
 chNormalization)                                                                                 
                                                                                                  
 p_re_lu_5 (PReLU)           (None, 1170, 32)             37440     ['batch_normalization_5[0][0]'
                                                                    ]                             
                                                                                                  
 conv1d_8 (Conv1D)           (None, 1170, 16)             3584      ['p_re_lu_5[0][0]']           
                                                                                                  
 conv1d_6 (Conv1D)           (None, 1170, 32)             7168      ['p_re_lu_4[0][0]']           
                                                                                                  
 conv1d_7 (Conv1D)           (None, 1170, 32)             7168      ['p_re_lu_4[0][0]']           
                                                                                                  
 dropout_8 (Dropout)         (None, 1170, 16)             0         ['conv1d_8[0][0]']            
                                                                                                  
 dropout_6 (Dropout)         (None, 1170, 32)             0         ['conv1d_6[0][0]']            
                                                                                                  
 dropout_7 (Dropout)         (None, 1170, 32)             0         ['conv1d_7[0][0]']            
                                                                                                  
 batch_normalization_8 (Bat  (None, 1170, 16)             64        ['dropout_8[0][0]']           
 chNormalization)                                                                                 
                                                                                                  
 batch_normalization_6 (Bat  (None, 1170, 32)             128       ['dropout_6[0][0]']           
 chNormalization)                                                                                 
                                                                                                  
 batch_normalization_7 (Bat  (None, 1170, 32)             128       ['dropout_7[0][0]']           
 chNormalization)                                                                                 
                                                                                                  
 p_re_lu_8 (PReLU)           (None, 1170, 16)             18720     ['batch_normalization_8[0][0]'
                                                                    ]                             
                                                                                                  
 p_re_lu_6 (PReLU)           (None, 1170, 32)             37440     ['batch_normalization_6[0][0]'
                                                                    ]                             
                                                                                                  
 p_re_lu_7 (PReLU)           (None, 1170, 32)             37440     ['batch_normalization_7[0][0]'
                                                                    ]                             
                                                                                                  
 conv1d_11 (Conv1D)          (None, 1170, 16)             1792      ['p_re_lu_8[0][0]']           
                                                                                                  
 conv1d_9 (Conv1D)           (None, 1170, 16)             3584      ['p_re_lu_6[0][0]']           
                                                                                                  
 conv1d_10 (Conv1D)          (None, 1170, 16)             3584      ['p_re_lu_7[0][0]']           
                                                                                                  
 dropout_11 (Dropout)        (None, 1170, 16)             0         ['conv1d_11[0][0]']           
                                                                                                  
 dropout_9 (Dropout)         (None, 1170, 16)             0         ['conv1d_9[0][0]']            
                                                                                                  
 dropout_10 (Dropout)        (None, 1170, 16)             0         ['conv1d_10[0][0]']           
                                                                                                  
 batch_normalization_11 (Ba  (None, 1170, 16)             64        ['dropout_11[0][0]']          
 tchNormalization)                                                                                
                                                                                                  
 batch_normalization_9 (Bat  (None, 1170, 16)             64        ['dropout_9[0][0]']           
 chNormalization)                                                                                 
                                                                                                  
 batch_normalization_10 (Ba  (None, 1170, 16)             64        ['dropout_10[0][0]']          
 tchNormalization)                                                                                
                                                                                                  
 p_re_lu_11 (PReLU)          (None, 1170, 16)             18720     ['batch_normalization_11[0][0]
                                                                    ']                            
                                                                                                  
 p_re_lu_9 (PReLU)           (None, 1170, 16)             18720     ['batch_normalization_9[0][0]'
                                                                    ]                             
                                                                                                  
 p_re_lu_10 (PReLU)          (None, 1170, 16)             18720     ['batch_normalization_10[0][0]
                                                                    ']                            
                                                                                                  
 ppi (Dense)                 (None, 1170, 1)              17        ['p_re_lu_11[0][0]']          
                                                                                                  
 dyna (Dense)                (None, 1170, 1)              17        ['p_re_lu_9[0][0]']           
                                                                                                  
 rsa (Dense)                 (None, 1170, 1)              17        ['p_re_lu_10[0][0]']          
                                                                                                  
==================================================================================================
Total params: 1413235 (10.78 MB)
Trainable params: 1412083 (10.77 MB)
Non-trainable params: 1152 (9.00 KB)
__________________________________________________________________________________________________
…
## Starting Training & Testing;; @@ trained on: ../data/prepared_biolip_win_p_training.csv at: 23-04-2024#16:09:33 @@
## tf-version: 2.14.0|| float_type: float64
Model: "model"
__________________________________________________________________________________________________
 Layer (type)                Output Shape                 Param #   Connected to                  
==================================================================================================
 input (InputLayer)          [(None, 1170, 1151)]         0         []                            
                                                                                                  
 conv1d (Conv1D)             (None, 1170, 64)             515648    ['input[0][0]']               
                                                                                                  
 dropout (Dropout)           (None, 1170, 64)             0         ['conv1d[0][0]']              
                                                                                                  
 batch_normalization (Batch  (None, 1170, 64)             256       ['dropout[0][0]']             
 Normalization)                                                                                   
                                                                                                  
 p_re_lu (PReLU)             (None, 1170, 64)             74880     ['batch_normalization[0][0]'] 
                                                                                                  
 conv1d_1 (Conv1D)           (None, 1170, 128)            57344     ['p_re_lu[0][0]']             
                                                                                                  
 dropout_1 (Dropout)         (None, 1170, 128)            0         ['conv1d_1[0][0]']            
                                                                                                  
 batch_normalization_1 (Bat  (None, 1170, 128)            512       ['dropout_1[0][0]']           
 chNormalization)                                                                                 
                                                                                                  
 p_re_lu_1 (PReLU)           (None, 1170, 128)            149760    ['batch_normalization_1[0][0]'
                                                                    ]                             
                                                                                                  
 conv1d_2 (Conv1D)           (None, 1170, 128)            114688    ['p_re_lu_1[0][0]']           
                                                                                                  
 dropout_2 (Dropout)         (None, 1170, 128)            0         ['conv1d_2[0][0]']            
                                                                                                  
 batch_normalization_2 (Bat  (None, 1170, 128)            512       ['dropout_2[0][0]']           
 chNormalization)                                                                                 
                                                                                                  
 p_re_lu_2 (PReLU)           (None, 1170, 128)            149760    ['batch_normalization_2[0][0]'
                                                                    ]                             
                                                                                                  
 conv1d_3 (Conv1D)           (None, 1170, 64)             57344     ['p_re_lu_2[0][0]']           
                                                                                                  
 dropout_3 (Dropout)         (None, 1170, 64)             0         ['conv1d_3[0][0]']            
                                                                                                  
 batch_normalization_3 (Bat  (None, 1170, 64)             256       ['dropout_3[0][0]']           
 chNormalization)                                                                                 
                                                                                                  
 p_re_lu_3 (PReLU)           (None, 1170, 64)             74880     ['batch_normalization_3[0][0]'
                                                                    ]                             
                                                                                                  
 conv1d_4 (Conv1D)           (None, 1170, 32)             14336     ['p_re_lu_3[0][0]']           
                                                                                                  
 dropout_4 (Dropout)         (None, 1170, 32)             0         ['conv1d_4[0][0]']            
                                                                                                  
 batch_normalization_4 (Bat  (None, 1170, 32)             128       ['dropout_4[0][0]']           
 chNormalization)                                                                                 
                                                                                                  
 p_re_lu_4 (PReLU)           (None, 1170, 32)             37440     ['batch_normalization_4[0][0]'
                                                                    ]                             
                                                                                                  
 conv1d_5 (Conv1D)           (None, 1170, 32)             7168      ['p_re_lu_4[0][0]']           
                                                                                                  
 dropout_5 (Dropout)         (None, 1170, 32)             0         ['conv1d_5[0][0]']            
                                                                                                  
 batch_normalization_5 (Bat  (None, 1170, 32)             128       ['dropout_5[0][0]']           
 chNormalization)                                                                                 
                                                                                                  
 p_re_lu_5 (PReLU)           (None, 1170, 32)             37440     ['batch_normalization_5[0][0]'
                                                                    ]                             
                                                                                                  
 conv1d_8 (Conv1D)           (None, 1170, 16)             3584      ['p_re_lu_5[0][0]']           
                                                                                                  
 conv1d_6 (Conv1D)           (None, 1170, 32)             7168      ['p_re_lu_4[0][0]']           
                                                                                                  
 conv1d_7 (Conv1D)           (None, 1170, 32)             7168      ['p_re_lu_4[0][0]']           
                                                                                                  
 dropout_8 (Dropout)         (None, 1170, 16)             0         ['conv1d_8[0][0]']            
                                                                                                  
 dropout_6 (Dropout)         (None, 1170, 32)             0         ['conv1d_6[0][0]']            
                                                                                                  
 dropout_7 (Dropout)         (None, 1170, 32)             0         ['conv1d_7[0][0]']            
                                                                                                  
 batch_normalization_8 (Bat  (None, 1170, 16)             64        ['dropout_8[0][0]']           
 chNormalization)                                                                                 
                                                                                                  
 batch_normalization_6 (Bat  (None, 1170, 32)             128       ['dropout_6[0][0]']           
 chNormalization)                                                                                 
                                                                                                  
 batch_normalization_7 (Bat  (None, 1170, 32)             128       ['dropout_7[0][0]']           
 chNormalization)                                                                                 
                                                                                                  
 p_re_lu_8 (PReLU)           (None, 1170, 16)             18720     ['batch_normalization_8[0][0]'
                                                                    ]                             
                                                                                                  
 p_re_lu_6 (PReLU)           (None, 1170, 32)             37440     ['batch_normalization_6[0][0]'
                                                                    ]                             
                                                                                                  
 p_re_lu_7 (PReLU)           (None, 1170, 32)             37440     ['batch_normalization_7[0][0]'
                                                                    ]                             
                                                                                                  
 conv1d_11 (Conv1D)          (None, 1170, 16)             1792      ['p_re_lu_8[0][0]']           
                                                                                                  
 conv1d_9 (Conv1D)           (None, 1170, 16)             3584      ['p_re_lu_6[0][0]']           
                                                                                                  
 conv1d_10 (Conv1D)          (None, 1170, 16)             3584      ['p_re_lu_7[0][0]']           
                                                                                                  
 dropout_11 (Dropout)        (None, 1170, 16)             0         ['conv1d_11[0][0]']           
                                                                                                  
 dropout_9 (Dropout)         (None, 1170, 16)             0         ['conv1d_9[0][0]']            
                                                                                                  
 dropout_10 (Dropout)        (None, 1170, 16)             0         ['conv1d_10[0][0]']           
                                                                                                  
 batch_normalization_11 (Ba  (None, 1170, 16)             64        ['dropout_11[0][0]']          
 tchNormalization)                                                                                
                                                                                                  
 batch_normalization_9 (Bat  (None, 1170, 16)             64        ['dropout_9[0][0]']           
 chNormalization)                                                                                 
                                                                                                  
 batch_normalization_10 (Ba  (None, 1170, 16)             64        ['dropout_10[0][0]']          
 tchNormalization)                                                                                
                                                                                                  
 p_re_lu_11 (PReLU)          (None, 1170, 16)             18720     ['batch_normalization_11[0][0]
                                                                    ']                            
                                                                                                  
 p_re_lu_9 (PReLU)           (None, 1170, 16)             18720     ['batch_normalization_9[0][0]'
                                                                    ]                             
                                                                                                  
 p_re_lu_10 (PReLU)          (None, 1170, 16)             18720     ['batch_normalization_10[0][0]
                                                                    ']                            
                                                                                                  
 ppi (Dense)                 (None, 1170, 1)              17        ['p_re_lu_11[0][0]']          
                                                                                                  
 helix (Dense)               (None, 1170, 1)              17        ['p_re_lu_9[0][0]']           
                                                                                                  
 sheet (Dense)               (None, 1170, 1)              17        ['p_re_lu_10[0][0]']          
                                                                                                  
==================================================================================================
Total params: 1469683 (11.21 MB)
Trainable params: 1468531 (11.20 MB)
Non-trainable params: 1152 (9.00 KB)
__________________________________________________________________________________________________
…
## Starting Training & Testing;; @@ trained on: ../data/prepared_biolip_win_p_training.csv at: 25-04-2024#13:09:27 @@
## tf-version: 2.14.0|| float_type: float64
Model: "model"
__________________________________________________________________________________________________
 Layer (type)                Output Shape                 Param #   Connected to                  
==================================================================================================
 input (InputLayer)          [(None, 1170, 1)]            0         []                            
                                                                                                  
 conv1d (Conv1D)             (None, 1170, 64)             448       ['input[0][0]']               
                                                                                                  
 dropout (Dropout)           (None, 1170, 64)             0         ['conv1d[0][0]']              
                                                                                                  
 batch_normalization (Batch  (None, 1170, 64)             256       ['dropout[0][0]']             
 Normalization)                                                                                   
                                                                                                  
 p_re_lu (PReLU)             (None, 1170, 64)             74880     ['batch_normalization[0][0]'] 
                                                                                                  
 conv1d_1 (Conv1D)           (None, 1170, 128)            57344     ['p_re_lu[0][0]']             
                                                                                                  
 dropout_1 (Dropout)         (None, 1170, 128)            0         ['conv1d_1[0][0]']            
                                                                                                  
 batch_normalization_1 (Bat  (None, 1170, 128)            512       ['dropout_1[0][0]']           
 chNormalization)                                                                                 
                                                                                                  
 p_re_lu_1 (PReLU)           (None, 1170, 128)            149760    ['batch_normalization_1[0][0]'
                                                                    ]                             
                                                                                                  
 conv1d_2 (Conv1D)           (None, 1170, 128)            114688    ['p_re_lu_1[0][0]']           
                                                                                                  
 dropout_2 (Dropout)         (None, 1170, 128)            0         ['conv1d_2[0][0]']            
                                                                                                  
 batch_normalization_2 (Bat  (None, 1170, 128)            512       ['dropout_2[0][0]']           
 chNormalization)                                                                                 
                                                                                                  
 p_re_lu_2 (PReLU)           (None, 1170, 128)            149760    ['batch_normalization_2[0][0]'
                                                                    ]                             
                                                                                                  
 conv1d_3 (Conv1D)           (None, 1170, 64)             57344     ['p_re_lu_2[0][0]']           
                                                                                                  
 dropout_3 (Dropout)         (None, 1170, 64)             0         ['conv1d_3[0][0]']            
                                                                                                  
 batch_normalization_3 (Bat  (None, 1170, 64)             256       ['dropout_3[0][0]']           
 chNormalization)                                                                                 
                                                                                                  
 p_re_lu_3 (PReLU)           (None, 1170, 64)             74880     ['batch_normalization_3[0][0]'
                                                                    ]                             
                                                                                                  
 conv1d_4 (Conv1D)           (None, 1170, 32)             14336     ['p_re_lu_3[0][0]']           
                                                                                                  
 dropout_4 (Dropout)         (None, 1170, 32)             0         ['conv1d_4[0][0]']            
                                                                                                  
 batch_normalization_4 (Bat  (None, 1170, 32)             128       ['dropout_4[0][0]']           
 chNormalization)                                                                                 
                                                                                                  
 p_re_lu_4 (PReLU)           (None, 1170, 32)             37440     ['batch_normalization_4[0][0]'
                                                                    ]                             
                                                                                                  
 conv1d_5 (Conv1D)           (None, 1170, 32)             7168      ['p_re_lu_4[0][0]']           
                                                                                                  
 dropout_5 (Dropout)         (None, 1170, 32)             0         ['conv1d_5[0][0]']            
                                                                                                  
 batch_normalization_5 (Bat  (None, 1170, 32)             128       ['dropout_5[0][0]']           
 chNormalization)                                                                                 
                                                                                                  
 p_re_lu_5 (PReLU)           (None, 1170, 32)             37440     ['batch_normalization_5[0][0]'
                                                                    ]                             
                                                                                                  
 conv1d_10 (Conv1D)          (None, 1170, 16)             3584      ['p_re_lu_5[0][0]']           
                                                                                                  
 conv1d_6 (Conv1D)           (None, 1170, 32)             7168      ['p_re_lu_4[0][0]']           
                                                                                                  
 conv1d_7 (Conv1D)           (None, 1170, 32)             7168      ['p_re_lu_4[0][0]']           
                                                                                                  
 conv1d_8 (Conv1D)           (None, 1170, 32)             7168      ['p_re_lu_4[0][0]']           
                                                                                                  
 conv1d_9 (Conv1D)           (None, 1170, 32)             7168      ['p_re_lu_4[0][0]']           
                                                                                                  
 dropout_10 (Dropout)        (None, 1170, 16)             0         ['conv1d_10[0][0]']           
                                                                                                  
 dropout_6 (Dropout)         (None, 1170, 32)             0         ['conv1d_6[0][0]']            
                                                                                                  
 dropout_7 (Dropout)         (None, 1170, 32)             0         ['conv1d_7[0][0]']            
                                                                                                  
 dropout_8 (Dropout)         (None, 1170, 32)             0         ['conv1d_8[0][0]']            
                                                                                                  
 dropout_9 (Dropout)         (None, 1170, 32)             0         ['conv1d_9[0][0]']            
                                                                                                  
 batch_normalization_10 (Ba  (None, 1170, 16)             64        ['dropout_10[0][0]']          
 tchNormalization)                                                                                
                                                                                                  
 batch_normalization_6 (Bat  (None, 1170, 32)             128       ['dropout_6[0][0]']           
 chNormalization)                                                                                 
                                                                                                  
 batch_normalization_7 (Bat  (None, 1170, 32)             128       ['dropout_7[0][0]']           
 chNormalization)                                                                                 
                                                                                                  
 batch_normalization_8 (Bat  (None, 1170, 32)             128       ['dropout_8[0][0]']           
 chNormalization)                                                                                 
                                                                                                  
 batch_normalization_9 (Bat  (None, 1170, 32)             128       ['dropout_9[0][0]']           
 chNormalization)                                                                                 
                                                                                                  
 p_re_lu_10 (PReLU)          (None, 1170, 16)             18720     ['batch_normalization_10[0][0]
                                                                    ']                            
                                                                                                  
 p_re_lu_6 (PReLU)           (None, 1170, 32)             37440     ['batch_normalization_6[0][0]'
                                                                    ]                             
                                                                                                  
 p_re_lu_7 (PReLU)           (None, 1170, 32)             37440     ['batch_normalization_7[0][0]'
                                                                    ]                             
                                                                                                  
 p_re_lu_8 (PReLU)           (None, 1170, 32)             37440     ['batch_normalization_8[0][0]'
                                                                    ]                             
                                                                                                  
 p_re_lu_9 (PReLU)           (None, 1170, 32)             37440     ['batch_normalization_9[0][0]'
                                                                    ]                             
                                                                                                  
 conv1d_15 (Conv1D)          (None, 1170, 16)             1792      ['p_re_lu_10[0][0]']          
                                                                                                  
 conv1d_11 (Conv1D)          (None, 1170, 16)             3584      ['p_re_lu_6[0][0]']           
                                                                                                  
 conv1d_12 (Conv1D)          (None, 1170, 16)             3584      ['p_re_lu_7[0][0]']           
                                                                                                  
 conv1d_13 (Conv1D)          (None, 1170, 16)             3584      ['p_re_lu_8[0][0]']           
                                                                                                  
 conv1d_14 (Conv1D)          (None, 1170, 16)             3584      ['p_re_lu_9[0][0]']           
                                                                                                  
 dropout_15 (Dropout)        (None, 1170, 16)             0         ['conv1d_15[0][0]']           
                                                                                                  
 dropout_11 (Dropout)        (None, 1170, 16)             0         ['conv1d_11[0][0]']           
                                                                                                  
 dropout_12 (Dropout)        (None, 1170, 16)             0         ['conv1d_12[0][0]']           
                                                                                                  
 dropout_13 (Dropout)        (None, 1170, 16)             0         ['conv1d_13[0][0]']           
                                                                                                  
 dropout_14 (Dropout)        (None, 1170, 16)             0         ['conv1d_14[0][0]']           
                                                                                                  
 batch_normalization_15 (Ba  (None, 1170, 16)             64        ['dropout_15[0][0]']          
 tchNormalization)                                                                                
                                                                                                  
 batch_normalization_11 (Ba  (None, 1170, 16)             64        ['dropout_11[0][0]']          
 tchNormalization)                                                                                
                                                                                                  
 batch_normalization_12 (Ba  (None, 1170, 16)             64        ['dropout_12[0][0]']          
 tchNormalization)                                                                                
                                                                                                  
 batch_normalization_13 (Ba  (None, 1170, 16)             64        ['dropout_13[0][0]']          
 tchNormalization)                                                                                
                                                                                                  
 batch_normalization_14 (Ba  (None, 1170, 16)             64        ['dropout_14[0][0]']          
 tchNormalization)                                                                                
                                                                                                  
 p_re_lu_15 (PReLU)          (None, 1170, 16)             18720     ['batch_normalization_15[0][0]
                                                                    ']                            
                                                                                                  
 p_re_lu_11 (PReLU)          (None, 1170, 16)             18720     ['batch_normalization_11[0][0]
                                                                    ']                            
                                                                                                  
 p_re_lu_12 (PReLU)          (None, 1170, 16)             18720     ['batch_normalization_12[0][0]
                                                                    ']                            
                                                                                                  
 p_re_lu_13 (PReLU)          (None, 1170, 16)             18720     ['batch_normalization_13[0][0]
                                                                    ']                            
                                                                                                  
 p_re_lu_14 (PReLU)          (None, 1170, 16)             18720     ['batch_normalization_14[0][0]
                                                                    ']                            
                                                                                                  
 ppi (Dense)                 (None, 1170, 1)              17        ['p_re_lu_15[0][0]']          
                                                                                                  
 rsa (Dense)                 (None, 1170, 1)              17        ['p_re_lu_11[0][0]']          
                                                                                                  
 sheet (Dense)               (None, 1170, 1)              17        ['p_re_lu_12[0][0]']          
                                                                                                  
 helix (Dense)               (None, 1170, 1)              17        ['p_re_lu_13[0][0]']          
                                                                                                  
 coil (Dense)                (None, 1170, 1)              17        ['p_re_lu_14[0][0]']          
                                                                                                  
==================================================================================================
Total params: 1088725 (8.31 MB)
Trainable params: 1087381 (8.30 MB)
Non-trainable params: 1344 (10.50 KB)
__________________________________________________________________________________________________
…
## Starting Training & Testing;; @@ trained on: ../data/prepared_biolip_win_p_training.csv at: 25-04-2024#14:02:53 @@
## tf-version: 2.14.0|| float_type: float64
Model: "model"
__________________________________________________________________________________________________
 Layer (type)                Output Shape                 Param #   Connected to                  
==================================================================================================
 input (InputLayer)          [(None, 1170, 1025)]         0         []                            
                                                                                                  
 conv1d (Conv1D)             (None, 1170, 64)             459200    ['input[0][0]']               
                                                                                                  
 dropout (Dropout)           (None, 1170, 64)             0         ['conv1d[0][0]']              
                                                                                                  
 batch_normalization (Batch  (None, 1170, 64)             256       ['dropout[0][0]']             
 Normalization)                                                                                   
                                                                                                  
 p_re_lu (PReLU)             (None, 1170, 64)             74880     ['batch_normalization[0][0]'] 
                                                                                                  
 conv1d_1 (Conv1D)           (None, 1170, 128)            57344     ['p_re_lu[0][0]']             
                                                                                                  
 dropout_1 (Dropout)         (None, 1170, 128)            0         ['conv1d_1[0][0]']            
                                                                                                  
 batch_normalization_1 (Bat  (None, 1170, 128)            512       ['dropout_1[0][0]']           
 chNormalization)                                                                                 
                                                                                                  
 p_re_lu_1 (PReLU)           (None, 1170, 128)            149760    ['batch_normalization_1[0][0]'
                                                                    ]                             
                                                                                                  
 conv1d_2 (Conv1D)           (None, 1170, 128)            114688    ['p_re_lu_1[0][0]']           
                                                                                                  
 dropout_2 (Dropout)         (None, 1170, 128)            0         ['conv1d_2[0][0]']            
                                                                                                  
 batch_normalization_2 (Bat  (None, 1170, 128)            512       ['dropout_2[0][0]']           
 chNormalization)                                                                                 
                                                                                                  
 p_re_lu_2 (PReLU)           (None, 1170, 128)            149760    ['batch_normalization_2[0][0]'
                                                                    ]                             
                                                                                                  
 conv1d_3 (Conv1D)           (None, 1170, 64)             57344     ['p_re_lu_2[0][0]']           
                                                                                                  
 dropout_3 (Dropout)         (None, 1170, 64)             0         ['conv1d_3[0][0]']            
                                                                                                  
 batch_normalization_3 (Bat  (None, 1170, 64)             256       ['dropout_3[0][0]']           
 chNormalization)                                                                                 
                                                                                                  
 p_re_lu_3 (PReLU)           (None, 1170, 64)             74880     ['batch_normalization_3[0][0]'
                                                                    ]                             
                                                                                                  
 conv1d_4 (Conv1D)           (None, 1170, 32)             14336     ['p_re_lu_3[0][0]']           
                                                                                                  
 dropout_4 (Dropout)         (None, 1170, 32)             0         ['conv1d_4[0][0]']            
                                                                                                  
 batch_normalization_4 (Bat  (None, 1170, 32)             128       ['dropout_4[0][0]']           
 chNormalization)                                                                                 
                                                                                                  
 p_re_lu_4 (PReLU)           (None, 1170, 32)             37440     ['batch_normalization_4[0][0]'
                                                                    ]                             
                                                                                                  
 conv1d_5 (Conv1D)           (None, 1170, 32)             7168      ['p_re_lu_4[0][0]']           
                                                                                                  
 dropout_5 (Dropout)         (None, 1170, 32)             0         ['conv1d_5[0][0]']            
                                                                                                  
 batch_normalization_5 (Bat  (None, 1170, 32)             128       ['dropout_5[0][0]']           
 chNormalization)                                                                                 
                                                                                                  
 p_re_lu_5 (PReLU)           (None, 1170, 32)             37440     ['batch_normalization_5[0][0]'
                                                                    ]                             
                                                                                                  
 conv1d_10 (Conv1D)          (None, 1170, 16)             3584      ['p_re_lu_5[0][0]']           
                                                                                                  
 conv1d_6 (Conv1D)           (None, 1170, 32)             7168      ['p_re_lu_4[0][0]']           
                                                                                                  
 conv1d_7 (Conv1D)           (None, 1170, 32)             7168      ['p_re_lu_4[0][0]']           
                                                                                                  
 conv1d_8 (Conv1D)           (None, 1170, 32)             7168      ['p_re_lu_4[0][0]']           
                                                                                                  
 conv1d_9 (Conv1D)           (None, 1170, 32)             7168      ['p_re_lu_4[0][0]']           
                                                                                                  
 dropout_10 (Dropout)        (None, 1170, 16)             0         ['conv1d_10[0][0]']           
                                                                                                  
 dropout_6 (Dropout)         (None, 1170, 32)             0         ['conv1d_6[0][0]']            
                                                                                                  
 dropout_7 (Dropout)         (None, 1170, 32)             0         ['conv1d_7[0][0]']            
                                                                                                  
 dropout_8 (Dropout)         (None, 1170, 32)             0         ['conv1d_8[0][0]']            
                                                                                                  
 dropout_9 (Dropout)         (None, 1170, 32)             0         ['conv1d_9[0][0]']            
                                                                                                  
 batch_normalization_10 (Ba  (None, 1170, 16)             64        ['dropout_10[0][0]']          
 tchNormalization)                                                                                
                                                                                                  
 batch_normalization_6 (Bat  (None, 1170, 32)             128       ['dropout_6[0][0]']           
 chNormalization)                                                                                 
                                                                                                  
 batch_normalization_7 (Bat  (None, 1170, 32)             128       ['dropout_7[0][0]']           
 chNormalization)                                                                                 
                                                                                                  
 batch_normalization_8 (Bat  (None, 1170, 32)             128       ['dropout_8[0][0]']           
 chNormalization)                                                                                 
                                                                                                  
 batch_normalization_9 (Bat  (None, 1170, 32)             128       ['dropout_9[0][0]']           
 chNormalization)                                                                                 
                                                                                                  
 p_re_lu_10 (PReLU)          (None, 1170, 16)             18720     ['batch_normalization_10[0][0]
                                                                    ']                            
                                                                                                  
 p_re_lu_6 (PReLU)           (None, 1170, 32)             37440     ['batch_normalization_6[0][0]'
                                                                    ]                             
                                                                                                  
 p_re_lu_7 (PReLU)           (None, 1170, 32)             37440     ['batch_normalization_7[0][0]'
                                                                    ]                             
                                                                                                  
 p_re_lu_8 (PReLU)           (None, 1170, 32)             37440     ['batch_normalization_8[0][0]'
                                                                    ]                             
                                                                                                  
 p_re_lu_9 (PReLU)           (None, 1170, 32)             37440     ['batch_normalization_9[0][0]'
                                                                    ]                             
                                                                                                  
 conv1d_15 (Conv1D)          (None, 1170, 16)             1792      ['p_re_lu_10[0][0]']          
                                                                                                  
 conv1d_11 (Conv1D)          (None, 1170, 16)             3584      ['p_re_lu_6[0][0]']           
                                                                                                  
 conv1d_12 (Conv1D)          (None, 1170, 16)             3584      ['p_re_lu_7[0][0]']           
                                                                                                  
 conv1d_13 (Conv1D)          (None, 1170, 16)             3584      ['p_re_lu_8[0][0]']           
                                                                                                  
 conv1d_14 (Conv1D)          (None, 1170, 16)             3584      ['p_re_lu_9[0][0]']           
                                                                                                  
 dropout_15 (Dropout)        (None, 1170, 16)             0         ['conv1d_15[0][0]']           
                                                                                                  
 dropout_11 (Dropout)        (None, 1170, 16)             0         ['conv1d_11[0][0]']           
                                                                                                  
 dropout_12 (Dropout)        (None, 1170, 16)             0         ['conv1d_12[0][0]']           
                                                                                                  
 dropout_13 (Dropout)        (None, 1170, 16)             0         ['conv1d_13[0][0]']           
                                                                                                  
 dropout_14 (Dropout)        (None, 1170, 16)             0         ['conv1d_14[0][0]']           
                                                                                                  
 batch_normalization_15 (Ba  (None, 1170, 16)             64        ['dropout_15[0][0]']          
 tchNormalization)                                                                                
                                                                                                  
 batch_normalization_11 (Ba  (None, 1170, 16)             64        ['dropout_11[0][0]']          
 tchNormalization)                                                                                
                                                                                                  
 batch_normalization_12 (Ba  (None, 1170, 16)             64        ['dropout_12[0][0]']          
 tchNormalization)                                                                                
                                                                                                  
 batch_normalization_13 (Ba  (None, 1170, 16)             64        ['dropout_13[0][0]']          
 tchNormalization)                                                                                
                                                                                                  
 batch_normalization_14 (Ba  (None, 1170, 16)             64        ['dropout_14[0][0]']          
 tchNormalization)                                                                                
                                                                                                  
 p_re_lu_15 (PReLU)          (None, 1170, 16)             18720     ['batch_normalization_15[0][0]
                                                                    ']                            
                                                                                                  
 p_re_lu_11 (PReLU)          (None, 1170, 16)             18720     ['batch_normalization_11[0][0]
                                                                    ']                            
                                                                                                  
 p_re_lu_12 (PReLU)          (None, 1170, 16)             18720     ['batch_normalization_12[0][0]
                                                                    ']                            
                                                                                                  
 p_re_lu_13 (PReLU)          (None, 1170, 16)             18720     ['batch_normalization_13[0][0]
                                                                    ']                            
                                                                                                  
 p_re_lu_14 (PReLU)          (None, 1170, 16)             18720     ['batch_normalization_14[0][0]
                                                                    ']                            
                                                                                                  
 ppi (Dense)                 (None, 1170, 1)              17        ['p_re_lu_15[0][0]']          
                                                                                                  
 rsa (Dense)                 (None, 1170, 1)              17        ['p_re_lu_11[0][0]']          
                                                                                                  
 sheet (Dense)               (None, 1170, 1)              17        ['p_re_lu_12[0][0]']          
                                                                                                  
 helix (Dense)               (None, 1170, 1)              17        ['p_re_lu_13[0][0]']          
                                                                                                  
 coil (Dense)                (None, 1170, 1)              17        ['p_re_lu_14[0][0]']          
                                                                                                  
==================================================================================================
Total params: 1547477 (11.81 MB)
Trainable params: 1546133 (11.80 MB)
Non-trainable params: 1344 (10.50 KB)
__________________________________________________________________________________________________
…
## Starting Training & Testing;; @@ trained on: ../data/prepared_biolip_win_p_training.csv at: 10-05-2024#14:48:39 @@
## tf-version: 2.14.0|| float_type: float64
Model: "model"
__________________________________________________________________________________________________
 Layer (type)                Output Shape                 Param #   Connected to                  
==================================================================================================
 input_1 (InputLayer)        [(None, 1170, 1025)]         0         []                            
                                                                                                  
 conv1d (Conv1D)             (None, 1170, 128)            393600    ['input_1[0][0]']             
                                                                                                  
 dropout (Dropout)           (None, 1170, 128)            0         ['conv1d[0][0]']              
                                                                                                  
 batch_normalization (Batch  (None, 1170, 128)            512       ['dropout[0][0]']             
 Normalization)                                                                                   
                                                                                                  
 p_re_lu (PReLU)             (None, 1170, 128)            149760    ['batch_normalization[0][0]'] 
                                                                                                  
 conv1d_1 (Conv1D)           (None, 1170, 128)            81920     ['p_re_lu[0][0]']             
                                                                                                  
 dropout_1 (Dropout)         (None, 1170, 128)            0         ['conv1d_1[0][0]']            
                                                                                                  
 batch_normalization_1 (Bat  (None, 1170, 128)            512       ['dropout_1[0][0]']           
 chNormalization)                                                                                 
                                                                                                  
 p_re_lu_1 (PReLU)           (None, 1170, 128)            149760    ['batch_normalization_1[0][0]'
                                                                    ]                             
                                                                                                  
 conv1d_2 (Conv1D)           (None, 1170, 128)            49152     ['p_re_lu_1[0][0]']           
                                                                                                  
 add (Add)                   (None, 1170, 128)            0         ['conv1d[0][0]',              
                                                                     'conv1d_2[0][0]']            
                                                                                                  
 dropout_2 (Dropout)         (None, 1170, 128)            0         ['add[0][0]']                 
                                                                                                  
 batch_normalization_2 (Bat  (None, 1170, 128)            512       ['dropout_2[0][0]']           
 chNormalization)                                                                                 
                                                                                                  
 p_re_lu_2 (PReLU)           (None, 1170, 128)            149760    ['batch_normalization_2[0][0]'
                                                                    ]                             
                                                                                                  
 conv1d_3 (Conv1D)           (None, 1170, 128)            81920     ['p_re_lu_2[0][0]']           
                                                                                                  
 dropout_3 (Dropout)         (None, 1170, 128)            0         ['conv1d_3[0][0]']            
                                                                                                  
 batch_normalization_3 (Bat  (None, 1170, 128)            512       ['dropout_3[0][0]']           
 chNormalization)                                                                                 
                                                                                                  
 p_re_lu_3 (PReLU)           (None, 1170, 128)            149760    ['batch_normalization_3[0][0]'
                                                                    ]                             
                                                                                                  
 conv1d_4 (Conv1D)           (None, 1170, 128)            49152     ['p_re_lu_3[0][0]']           
                                                                                                  
 add_1 (Add)                 (None, 1170, 128)            0         ['add[0][0]',                 
                                                                     'conv1d_4[0][0]']            
                                                                                                  
 dropout_4 (Dropout)         (None, 1170, 128)            0         ['add_1[0][0]']               
                                                                                                  
 batch_normalization_4 (Bat  (None, 1170, 128)            512       ['dropout_4[0][0]']           
 chNormalization)                                                                                 
                                                                                                  
 p_re_lu_4 (PReLU)           (None, 1170, 128)            149760    ['batch_normalization_4[0][0]'
                                                                    ]                             
                                                                                                  
 conv1d_5 (Conv1D)           (None, 1170, 128)            81920     ['p_re_lu_4[0][0]']           
                                                                                                  
 dropout_5 (Dropout)         (None, 1170, 128)            0         ['conv1d_5[0][0]']            
                                                                                                  
 batch_normalization_5 (Bat  (None, 1170, 128)            512       ['dropout_5[0][0]']           
 chNormalization)                                                                                 
                                                                                                  
 p_re_lu_5 (PReLU)           (None, 1170, 128)            149760    ['batch_normalization_5[0][0]'
                                                                    ]                             
                                                                                                  
 conv1d_6 (Conv1D)           (None, 1170, 128)            49152     ['p_re_lu_5[0][0]']           
                                                                                                  
 add_2 (Add)                 (None, 1170, 128)            0         ['add_1[0][0]',               
                                                                     'conv1d_6[0][0]']            
                                                                                                  
 dropout_6 (Dropout)         (None, 1170, 128)            0         ['add_2[0][0]']               
                                                                                                  
 batch_normalization_6 (Bat  (None, 1170, 128)            512       ['dropout_6[0][0]']           
 chNormalization)                                                                                 
                                                                                                  
 p_re_lu_6 (PReLU)           (None, 1170, 128)            149760    ['batch_normalization_6[0][0]'
                                                                    ]                             
                                                                                                  
 conv1d_7 (Conv1D)           (None, 1170, 128)            81920     ['p_re_lu_6[0][0]']           
                                                                                                  
 dropout_7 (Dropout)         (None, 1170, 128)            0         ['conv1d_7[0][0]']            
                                                                                                  
 batch_normalization_7 (Bat  (None, 1170, 128)            512       ['dropout_7[0][0]']           
 chNormalization)                                                                                 
                                                                                                  
 p_re_lu_7 (PReLU)           (None, 1170, 128)            149760    ['batch_normalization_7[0][0]'
                                                                    ]                             
                                                                                                  
 conv1d_8 (Conv1D)           (None, 1170, 128)            49152     ['p_re_lu_7[0][0]']           
                                                                                                  
 add_3 (Add)                 (None, 1170, 128)            0         ['add_2[0][0]',               
                                                                     'conv1d_8[0][0]']            
                                                                                                  
 dropout_8 (Dropout)         (None, 1170, 128)            0         ['add_3[0][0]']               
                                                                                                  
 batch_normalization_8 (Bat  (None, 1170, 128)            512       ['dropout_8[0][0]']           
 chNormalization)                                                                                 
                                                                                                  
 p_re_lu_8 (PReLU)           (None, 1170, 128)            149760    ['batch_normalization_8[0][0]'
                                                                    ]                             
                                                                                                  
 conv1d_9 (Conv1D)           (None, 1170, 128)            81920     ['p_re_lu_8[0][0]']           
                                                                                                  
 dropout_9 (Dropout)         (None, 1170, 128)            0         ['conv1d_9[0][0]']            
                                                                                                  
 batch_normalization_9 (Bat  (None, 1170, 128)            512       ['dropout_9[0][0]']           
 chNormalization)                                                                                 
                                                                                                  
 p_re_lu_9 (PReLU)           (None, 1170, 128)            149760    ['batch_normalization_9[0][0]'
                                                                    ]                             
                                                                                                  
 conv1d_10 (Conv1D)          (None, 1170, 128)            49152     ['p_re_lu_9[0][0]']           
                                                                                                  
 add_4 (Add)                 (None, 1170, 128)            0         ['add_3[0][0]',               
                                                                     'conv1d_10[0][0]']           
                                                                                                  
 dropout_10 (Dropout)        (None, 1170, 128)            0         ['add_4[0][0]']               
                                                                                                  
 batch_normalization_10 (Ba  (None, 1170, 128)            512       ['dropout_10[0][0]']          
 tchNormalization)                                                                                
                                                                                                  
 p_re_lu_10 (PReLU)          (None, 1170, 128)            149760    ['batch_normalization_10[0][0]
                                                                    ']                            
                                                                                                  
 conv1d_11 (Conv1D)          (None, 1170, 128)            81920     ['p_re_lu_10[0][0]']          
                                                                                                  
 dropout_11 (Dropout)        (None, 1170, 128)            0         ['conv1d_11[0][0]']           
                                                                                                  
 batch_normalization_11 (Ba  (None, 1170, 128)            512       ['dropout_11[0][0]']          
 tchNormalization)                                                                                
                                                                                                  
 p_re_lu_11 (PReLU)          (None, 1170, 128)            149760    ['batch_normalization_11[0][0]
                                                                    ']                            
                                                                                                  
 conv1d_12 (Conv1D)          (None, 1170, 128)            49152     ['p_re_lu_11[0][0]']          
                                                                                                  
 add_5 (Add)                 (None, 1170, 128)            0         ['add_4[0][0]',               
                                                                     'conv1d_12[0][0]']           
                                                                                                  
 dropout_12 (Dropout)        (None, 1170, 128)            0         ['add_5[0][0]']               
                                                                                                  
 batch_normalization_12 (Ba  (None, 1170, 128)            512       ['dropout_12[0][0]']          
 tchNormalization)                                                                                
                                                                                                  
 p_re_lu_12 (PReLU)          (None, 1170, 128)            149760    ['batch_normalization_12[0][0]
                                                                    ']                            
                                                                                                  
 conv1d_13 (Conv1D)          (None, 1170, 128)            81920     ['p_re_lu_12[0][0]']          
                                                                                                  
 dropout_13 (Dropout)        (None, 1170, 128)            0         ['conv1d_13[0][0]']           
                                                                                                  
 batch_normalization_13 (Ba  (None, 1170, 128)            512       ['dropout_13[0][0]']          
 tchNormalization)                                                                                
                                                                                                  
 p_re_lu_13 (PReLU)          (None, 1170, 128)            149760    ['batch_normalization_13[0][0]
                                                                    ']                            
                                                                                                  
 conv1d_14 (Conv1D)          (None, 1170, 128)            49152     ['p_re_lu_13[0][0]']          
                                                                                                  
 add_6 (Add)                 (None, 1170, 128)            0         ['add_5[0][0]',               
                                                                     'conv1d_14[0][0]']           
                                                                                                  
 dropout_14 (Dropout)        (None, 1170, 128)            0         ['add_6[0][0]']               
                                                                                                  
 batch_normalization_14 (Ba  (None, 1170, 128)            512       ['dropout_14[0][0]']          
 tchNormalization)                                                                                
                                                                                                  
 p_re_lu_14 (PReLU)          (None, 1170, 128)            149760    ['batch_normalization_14[0][0]
                                                                    ']                            
                                                                                                  
 conv1d_15 (Conv1D)          (None, 1170, 128)            81920     ['p_re_lu_14[0][0]']          
                                                                                                  
 dropout_15 (Dropout)        (None, 1170, 128)            0         ['conv1d_15[0][0]']           
                                                                                                  
 batch_normalization_15 (Ba  (None, 1170, 128)            512       ['dropout_15[0][0]']          
 tchNormalization)                                                                                
                                                                                                  
 p_re_lu_15 (PReLU)          (None, 1170, 128)            149760    ['batch_normalization_15[0][0]
                                                                    ']                            
                                                                                                  
 conv1d_16 (Conv1D)          (None, 1170, 128)            49152     ['p_re_lu_15[0][0]']          
                                                                                                  
 add_7 (Add)                 (None, 1170, 128)            0         ['add_6[0][0]',               
                                                                     'conv1d_16[0][0]']           
                                                                                                  
 dropout_16 (Dropout)        (None, 1170, 128)            0         ['add_7[0][0]']               
                                                                                                  
 batch_normalization_16 (Ba  (None, 1170, 128)            512       ['dropout_16[0][0]']          
 tchNormalization)                                                                                
                                                                                                  
 p_re_lu_16 (PReLU)          (None, 1170, 128)            149760    ['batch_normalization_16[0][0]
                                                                    ']                            
                                                                                                  
 ppi (Dense)                 (None, 1170, 1)              129       ['p_re_lu_16[0][0]']          
                                                                                                  
 rsa (Dense)                 (None, 1170, 1)              129       ['p_re_lu_16[0][0]']          
                                                                                                  
 sheet (Dense)               (None, 1170, 1)              129       ['p_re_lu_16[0][0]']          
                                                                                                  
 helix (Dense)               (None, 1170, 1)              129       ['p_re_lu_16[0][0]']          
                                                                                                  
 coil (Dense)                (None, 1170, 1)              129       ['p_re_lu_16[0][0]']          
                                                                                                  
==================================================================================================
Total params: 3997445 (30.50 MB)
Trainable params: 3993093 (30.46 MB)
Non-trainable params: 4352 (34.00 KB)
__________________________________________________________________________________________________
…
