…
## Starting Training & Testing;; @@ trained on: ../data/prepared_epitope_training.csv at: 19-04-2024#14:30:22 @@
## tf-version: 2.15.0|| float_type: float64
Model: "model"
__________________________________________________________________________________________________
 Layer (type)                Output Shape                 Param #   Connected to                  
==================================================================================================
 input (InputLayer)          [(None, 1170, 1025)]         0         []                            
                                                                                                  
 conv1d (Conv1D)             (None, 1170, 64)             459200    ['input[0][0]']               
                                                                                                  
 dropout (Dropout)           (None, 1170, 64)             0         ['conv1d[0][0]']              
                                                                                                  
 batch_normalization (Batch  (None, 1170, 64)             256       ['dropout[0][0]']             
 Normalization)                                                                                   
                                                                                                  
 p_re_lu (PReLU)             (None, 1170, 64)             74880     ['batch_normalization[0][0]'] 
                                                                                                  
 conv1d_1 (Conv1D)           (None, 1170, 128)            57344     ['p_re_lu[0][0]']             
                                                                                                  
 dropout_1 (Dropout)         (None, 1170, 128)            0         ['conv1d_1[0][0]']            
                                                                                                  
 batch_normalization_1 (Bat  (None, 1170, 128)            512       ['dropout_1[0][0]']           
 chNormalization)                                                                                 
                                                                                                  
 p_re_lu_1 (PReLU)           (None, 1170, 128)            149760    ['batch_normalization_1[0][0]'
                                                                    ]                             
                                                                                                  
 conv1d_2 (Conv1D)           (None, 1170, 128)            114688    ['p_re_lu_1[0][0]']           
                                                                                                  
 dropout_2 (Dropout)         (None, 1170, 128)            0         ['conv1d_2[0][0]']            
                                                                                                  
 batch_normalization_2 (Bat  (None, 1170, 128)            512       ['dropout_2[0][0]']           
 chNormalization)                                                                                 
                                                                                                  
 p_re_lu_2 (PReLU)           (None, 1170, 128)            149760    ['batch_normalization_2[0][0]'
                                                                    ]                             
                                                                                                  
 conv1d_3 (Conv1D)           (None, 1170, 64)             57344     ['p_re_lu_2[0][0]']           
                                                                                                  
 dropout_3 (Dropout)         (None, 1170, 64)             0         ['conv1d_3[0][0]']            
                                                                                                  
 batch_normalization_3 (Bat  (None, 1170, 64)             256       ['dropout_3[0][0]']           
 chNormalization)                                                                                 
                                                                                                  
 p_re_lu_3 (PReLU)           (None, 1170, 64)             74880     ['batch_normalization_3[0][0]'
                                                                    ]                             
                                                                                                  
 conv1d_4 (Conv1D)           (None, 1170, 32)             14336     ['p_re_lu_3[0][0]']           
                                                                                                  
 dropout_4 (Dropout)         (None, 1170, 32)             0         ['conv1d_4[0][0]']            
                                                                                                  
 batch_normalization_4 (Bat  (None, 1170, 32)             128       ['dropout_4[0][0]']           
 chNormalization)                                                                                 
                                                                                                  
 p_re_lu_4 (PReLU)           (None, 1170, 32)             37440     ['batch_normalization_4[0][0]'
                                                                    ]                             
                                                                                                  
 conv1d_5 (Conv1D)           (None, 1170, 32)             7168      ['p_re_lu_4[0][0]']           
                                                                                                  
 conv1d_6 (Conv1D)           (None, 1170, 32)             7168      ['p_re_lu_4[0][0]']           
                                                                                                  
 dropout_5 (Dropout)         (None, 1170, 32)             0         ['conv1d_5[0][0]']            
                                                                                                  
 dropout_6 (Dropout)         (None, 1170, 32)             0         ['conv1d_6[0][0]']            
                                                                                                  
 batch_normalization_5 (Bat  (None, 1170, 32)             128       ['dropout_5[0][0]']           
 chNormalization)                                                                                 
                                                                                                  
 batch_normalization_6 (Bat  (None, 1170, 32)             128       ['dropout_6[0][0]']           
 chNormalization)                                                                                 
                                                                                                  
 p_re_lu_5 (PReLU)           (None, 1170, 32)             37440     ['batch_normalization_5[0][0]'
                                                                    ]                             
                                                                                                  
 p_re_lu_6 (PReLU)           (None, 1170, 32)             37440     ['batch_normalization_6[0][0]'
                                                                    ]                             
                                                                                                  
 conv1d_7 (Conv1D)           (None, 1170, 16)             3584      ['p_re_lu_5[0][0]']           
                                                                                                  
 conv1d_8 (Conv1D)           (None, 1170, 16)             3584      ['p_re_lu_6[0][0]']           
                                                                                                  
 dropout_7 (Dropout)         (None, 1170, 16)             0         ['conv1d_7[0][0]']            
                                                                                                  
 dropout_8 (Dropout)         (None, 1170, 16)             0         ['conv1d_8[0][0]']            
                                                                                                  
 batch_normalization_7 (Bat  (None, 1170, 16)             64        ['dropout_7[0][0]']           
 chNormalization)                                                                                 
                                                                                                  
 batch_normalization_8 (Bat  (None, 1170, 16)             64        ['dropout_8[0][0]']           
 chNormalization)                                                                                 
                                                                                                  
 p_re_lu_7 (PReLU)           (None, 1170, 16)             18720     ['batch_normalization_7[0][0]'
                                                                    ]                             
                                                                                                  
 p_re_lu_8 (PReLU)           (None, 1170, 16)             18720     ['batch_normalization_8[0][0]'
                                                                    ]                             
                                                                                                  
 ppi (Dense)                 (None, 1170, 1)              17        ['p_re_lu_7[0][0]']           
                                                                                                  
 dyna (Dense)                (None, 1170, 1)              17        ['p_re_lu_8[0][0]']           
                                                                                                  
==================================================================================================
Total params: 1325538 (10.11 MB)
Trainable params: 1324514 (10.11 MB)
Non-trainable params: 1024 (8.00 KB)
__________________________________________________________________________________________________
…
## Starting Training & Testing;; @@ trained on: ../data/prepared_epitope_training.csv at: 19-04-2024#14:55:54 @@
## tf-version: 2.15.0|| float_type: float64
Model: "model"
__________________________________________________________________________________________________
 Layer (type)                Output Shape                 Param #   Connected to                  
==================================================================================================
 input (InputLayer)          [(None, 1170, 1025)]         0         []                            
                                                                                                  
 conv1d (Conv1D)             (None, 1170, 64)             459200    ['input[0][0]']               
                                                                                                  
 dropout (Dropout)           (None, 1170, 64)             0         ['conv1d[0][0]']              
                                                                                                  
 batch_normalization (Batch  (None, 1170, 64)             256       ['dropout[0][0]']             
 Normalization)                                                                                   
                                                                                                  
 p_re_lu (PReLU)             (None, 1170, 64)             74880     ['batch_normalization[0][0]'] 
                                                                                                  
 conv1d_1 (Conv1D)           (None, 1170, 128)            57344     ['p_re_lu[0][0]']             
                                                                                                  
 dropout_1 (Dropout)         (None, 1170, 128)            0         ['conv1d_1[0][0]']            
                                                                                                  
 batch_normalization_1 (Bat  (None, 1170, 128)            512       ['dropout_1[0][0]']           
 chNormalization)                                                                                 
                                                                                                  
 p_re_lu_1 (PReLU)           (None, 1170, 128)            149760    ['batch_normalization_1[0][0]'
                                                                    ]                             
                                                                                                  
 conv1d_2 (Conv1D)           (None, 1170, 128)            114688    ['p_re_lu_1[0][0]']           
                                                                                                  
 dropout_2 (Dropout)         (None, 1170, 128)            0         ['conv1d_2[0][0]']            
                                                                                                  
 batch_normalization_2 (Bat  (None, 1170, 128)            512       ['dropout_2[0][0]']           
 chNormalization)                                                                                 
                                                                                                  
 p_re_lu_2 (PReLU)           (None, 1170, 128)            149760    ['batch_normalization_2[0][0]'
                                                                    ]                             
                                                                                                  
 conv1d_3 (Conv1D)           (None, 1170, 64)             57344     ['p_re_lu_2[0][0]']           
                                                                                                  
 dropout_3 (Dropout)         (None, 1170, 64)             0         ['conv1d_3[0][0]']            
                                                                                                  
 batch_normalization_3 (Bat  (None, 1170, 64)             256       ['dropout_3[0][0]']           
 chNormalization)                                                                                 
                                                                                                  
 p_re_lu_3 (PReLU)           (None, 1170, 64)             74880     ['batch_normalization_3[0][0]'
                                                                    ]                             
                                                                                                  
 conv1d_4 (Conv1D)           (None, 1170, 32)             14336     ['p_re_lu_3[0][0]']           
                                                                                                  
 dropout_4 (Dropout)         (None, 1170, 32)             0         ['conv1d_4[0][0]']            
                                                                                                  
 batch_normalization_4 (Bat  (None, 1170, 32)             128       ['dropout_4[0][0]']           
 chNormalization)                                                                                 
                                                                                                  
 p_re_lu_4 (PReLU)           (None, 1170, 32)             37440     ['batch_normalization_4[0][0]'
                                                                    ]                             
                                                                                                  
 conv1d_5 (Conv1D)           (None, 1170, 32)             7168      ['p_re_lu_4[0][0]']           
                                                                                                  
 conv1d_6 (Conv1D)           (None, 1170, 32)             7168      ['p_re_lu_4[0][0]']           
                                                                                                  
 conv1d_7 (Conv1D)           (None, 1170, 32)             7168      ['p_re_lu_4[0][0]']           
                                                                                                  
 dropout_5 (Dropout)         (None, 1170, 32)             0         ['conv1d_5[0][0]']            
                                                                                                  
 dropout_6 (Dropout)         (None, 1170, 32)             0         ['conv1d_6[0][0]']            
                                                                                                  
 dropout_7 (Dropout)         (None, 1170, 32)             0         ['conv1d_7[0][0]']            
                                                                                                  
 batch_normalization_5 (Bat  (None, 1170, 32)             128       ['dropout_5[0][0]']           
 chNormalization)                                                                                 
                                                                                                  
 batch_normalization_6 (Bat  (None, 1170, 32)             128       ['dropout_6[0][0]']           
 chNormalization)                                                                                 
                                                                                                  
 batch_normalization_7 (Bat  (None, 1170, 32)             128       ['dropout_7[0][0]']           
 chNormalization)                                                                                 
                                                                                                  
 p_re_lu_5 (PReLU)           (None, 1170, 32)             37440     ['batch_normalization_5[0][0]'
                                                                    ]                             
                                                                                                  
 p_re_lu_6 (PReLU)           (None, 1170, 32)             37440     ['batch_normalization_6[0][0]'
                                                                    ]                             
                                                                                                  
 p_re_lu_7 (PReLU)           (None, 1170, 32)             37440     ['batch_normalization_7[0][0]'
                                                                    ]                             
                                                                                                  
 conv1d_8 (Conv1D)           (None, 1170, 16)             3584      ['p_re_lu_5[0][0]']           
                                                                                                  
 conv1d_9 (Conv1D)           (None, 1170, 16)             3584      ['p_re_lu_6[0][0]']           
                                                                                                  
 conv1d_10 (Conv1D)          (None, 1170, 16)             3584      ['p_re_lu_7[0][0]']           
                                                                                                  
 dropout_8 (Dropout)         (None, 1170, 16)             0         ['conv1d_8[0][0]']            
                                                                                                  
 dropout_9 (Dropout)         (None, 1170, 16)             0         ['conv1d_9[0][0]']            
                                                                                                  
 dropout_10 (Dropout)        (None, 1170, 16)             0         ['conv1d_10[0][0]']           
                                                                                                  
 batch_normalization_8 (Bat  (None, 1170, 16)             64        ['dropout_8[0][0]']           
 chNormalization)                                                                                 
                                                                                                  
 batch_normalization_9 (Bat  (None, 1170, 16)             64        ['dropout_9[0][0]']           
 chNormalization)                                                                                 
                                                                                                  
 batch_normalization_10 (Ba  (None, 1170, 16)             64        ['dropout_10[0][0]']          
 tchNormalization)                                                                                
                                                                                                  
 p_re_lu_8 (PReLU)           (None, 1170, 16)             18720     ['batch_normalization_8[0][0]'
                                                                    ]                             
                                                                                                  
 p_re_lu_9 (PReLU)           (None, 1170, 16)             18720     ['batch_normalization_9[0][0]'
                                                                    ]                             
                                                                                                  
 p_re_lu_10 (PReLU)          (None, 1170, 16)             18720     ['batch_normalization_10[0][0]
                                                                    ']                            
                                                                                                  
 ppi (Dense)                 (None, 1170, 1)              17        ['p_re_lu_8[0][0]']           
                                                                                                  
 dyna (Dense)                (None, 1170, 1)              17        ['p_re_lu_9[0][0]']           
                                                                                                  
 rsa (Dense)                 (None, 1170, 1)              17        ['p_re_lu_10[0][0]']          
                                                                                                  
==================================================================================================
Total params: 1392659 (10.63 MB)
Trainable params: 1391539 (10.62 MB)
Non-trainable params: 1120 (8.75 KB)
__________________________________________________________________________________________________
…
