…
2024-06-09 21:18:07.014413: I tensorflow/compiler/xla/stream_executor/cuda/cuda_diagnostics.cc:309] kernel version seems to match DSO: 530.30.2
$$$$$$ Please install GPU version of TF
The chosen labels are: ['p_interface']
setCondParams, one hot is false
:) setExprDatasetFiles
Batch size: 8
LABEL_DIM 1
inputshape (1170, 1025)
Model: "model"
_________________________________________________________________
 Layer (type)                Output Shape              Param #   
=================================================================
 input (InputLayer)          [(None, 1170, 1025)]      0         
                                                                 
 conv1d (Conv1D)             (None, 1170, 128)         918400    
                                                                 
 dropout (Dropout)           (None, 1170, 128)         0         
                                                                 
 batch_normalization (Batch  (None, 1170, 128)         512       
 Normalization)                                                  
                                                                 
 p_re_lu (PReLU)             (None, 1170, 128)         149760    
                                                                 
 conv1d_1 (Conv1D)           (None, 1170, 128)         114688    
                                                                 
 dropout_1 (Dropout)         (None, 1170, 128)         0         
                                                                 
 batch_normalization_1 (Bat  (None, 1170, 128)         512       
 chNormalization)                                                
                                                                 
 p_re_lu_1 (PReLU)           (None, 1170, 128)         149760    
                                                                 
 conv1d_2 (Conv1D)           (None, 1170, 128)         114688    
                                                                 
 dropout_2 (Dropout)         (None, 1170, 128)         0         
                                                                 
 batch_normalization_2 (Bat  (None, 1170, 128)         512       
 chNormalization)                                                
                                                                 
 p_re_lu_2 (PReLU)           (None, 1170, 128)         149760    
                                                                 
 conv1d_3 (Conv1D)           (None, 1170, 64)          57344     
                                                                 
 dropout_3 (Dropout)         (None, 1170, 64)          0         
                                                                 
 batch_normalization_3 (Bat  (None, 1170, 64)          256       
 chNormalization)                                                
                                                                 
 p_re_lu_3 (PReLU)           (None, 1170, 64)          74880     
                                                                 
 conv1d_4 (Conv1D)           (None, 1170, 64)          28672     
                                                                 
 dropout_4 (Dropout)         (None, 1170, 64)          0         
                                                                 
 batch_normalization_4 (Bat  (None, 1170, 64)          256       
 chNormalization)                                                
                                                                 
 p_re_lu_4 (PReLU)           (None, 1170, 64)          74880     
                                                                 
 conv1d_5 (Conv1D)           (None, 1170, 64)          28672     
                                                                 
 dropout_5 (Dropout)         (None, 1170, 64)          0         
                                                                 
 batch_normalization_5 (Bat  (None, 1170, 64)          256       
 chNormalization)                                                
                                                                 
 p_re_lu_5 (PReLU)           (None, 1170, 64)          74880     
                                                                 
 conv1d_6 (Conv1D)           (None, 1170, 64)          28672     
                                                                 
 dropout_6 (Dropout)         (None, 1170, 64)          0         
                                                                 
 batch_normalization_6 (Bat  (None, 1170, 64)          256       
 chNormalization)                                                
                                                                 
 p_re_lu_6 (PReLU)           (None, 1170, 64)          74880     
                                                                 
 time_distributed (TimeDist  (None, 1170, 32)          2080      
 ributed)                                                        
                                                                 
 p_re_lu_7 (PReLU)           (None, 1170, 32)          37440     
                                                                 
 time_distributed_1 (TimeDi  (None, 1170, 32)          1056      
 stributed)                                                      
                                                                 
 p_re_lu_8 (PReLU)           (None, 1170, 32)          37440     
                                                                 
 time_distributed_2 (TimeDi  (None, 1170, 16)          528       
 stributed)                                                      
                                                                 
 p_re_lu_9 (PReLU)           (None, 1170, 16)          18720     
                                                                 
 time_distributed_3 (TimeDi  (None, 1170, 8)           136       
 stributed)                                                      
                                                                 
 p_re_lu_10 (PReLU)          (None, 1170, 8)           9360      
                                                                 
 ppi (TimeDistributed)       (None, 1170, 1)           9         
                                                                 
=================================================================
Total params: 2149265 (16.40 MB)
Trainable params: 2147985 (16.39 MB)
Non-trainable params: 1280 (10.00 KB)
_________________________________________________________________
:) trainModel

## Starting Training & Testing;; @@ trained on: ../data/prepared_biolip_win_p_training.csv at: 09-06-2024#21:18:09 @@
…
