…
:) setExprDatasetFiles
Batch size: 8
LABEL_DIM 5
inputshape (1170, 1025)
Model: "model"
__________________________________________________________________________________________________
 Layer (type)                Output Shape                 Param #   Connected to                  
==================================================================================================
 input (InputLayer)          [(None, 1170, 1025)]         0         []                            
                                                                                                  
 conv1d (Conv1D)             (None, 1170, 64)             459200    ['input[0][0]']               
                                                                                                  
 dropout (Dropout)           (None, 1170, 64)             0         ['conv1d[0][0]']              
                                                                                                  
 batch_normalization (Batch  (None, 1170, 64)             256       ['dropout[0][0]']             
 Normalization)                                                                                   
                                                                                                  
 p_re_lu (PReLU)             (None, 1170, 64)             74880     ['batch_normalization[0][0]'] 
                                                                                                  
 conv1d_1 (Conv1D)           (None, 1170, 128)            57344     ['p_re_lu[0][0]']             
                                                                                                  
 dropout_1 (Dropout)         (None, 1170, 128)            0         ['conv1d_1[0][0]']            
                                                                                                  
 batch_normalization_1 (Bat  (None, 1170, 128)            512       ['dropout_1[0][0]']           
 chNormalization)                                                                                 
                                                                                                  
 p_re_lu_1 (PReLU)           (None, 1170, 128)            149760    ['batch_normalization_1[0][0]'
                                                                    ]                             
                                                                                                  
 conv1d_2 (Conv1D)           (None, 1170, 128)            114688    ['p_re_lu_1[0][0]']           
                                                                                                  
 dropout_2 (Dropout)         (None, 1170, 128)            0         ['conv1d_2[0][0]']            
                                                                                                  
 batch_normalization_2 (Bat  (None, 1170, 128)            512       ['dropout_2[0][0]']           
 chNormalization)                                                                                 
                                                                                                  
 p_re_lu_2 (PReLU)           (None, 1170, 128)            149760    ['batch_normalization_2[0][0]'
                                                                    ]                             
                                                                                                  
 conv1d_3 (Conv1D)           (None, 1170, 64)             57344     ['p_re_lu_2[0][0]']           
                                                                                                  
 dropout_3 (Dropout)         (None, 1170, 64)             0         ['conv1d_3[0][0]']            
                                                                                                  
 batch_normalization_3 (Bat  (None, 1170, 64)             256       ['dropout_3[0][0]']           
 chNormalization)                                                                                 
                                                                                                  
 p_re_lu_3 (PReLU)           (None, 1170, 64)             74880     ['batch_normalization_3[0][0]'
                                                                    ]                             
                                                                                                  
 conv1d_4 (Conv1D)           (None, 1170, 64)             28672     ['p_re_lu_3[0][0]']           
                                                                                                  
 dropout_4 (Dropout)         (None, 1170, 64)             0         ['conv1d_4[0][0]']            
                                                                                                  
 batch_normalization_4 (Bat  (None, 1170, 64)             256       ['dropout_4[0][0]']           
 chNormalization)                                                                                 
                                                                                                  
 p_re_lu_4 (PReLU)           (None, 1170, 64)             74880     ['batch_normalization_4[0][0]'
                                                                    ]                             
                                                                                                  
 conv1d_5 (Conv1D)           (None, 1170, 64)             28672     ['p_re_lu_4[0][0]']           
                                                                                                  
 conv1d_7 (Conv1D)           (None, 1170, 64)             28672     ['p_re_lu_4[0][0]']           
                                                                                                  
 conv1d_8 (Conv1D)           (None, 1170, 64)             28672     ['p_re_lu_4[0][0]']           
                                                                                                  
 conv1d_9 (Conv1D)           (None, 1170, 64)             28672     ['p_re_lu_4[0][0]']           
                                                                                                  
 dropout_5 (Dropout)         (None, 1170, 64)             0         ['conv1d_5[0][0]']            
                                                                                                  
 conv1d_6 (Conv1D)           (None, 1170, 64)             28672     ['p_re_lu_4[0][0]']           
                                                                                                  
 dropout_7 (Dropout)         (None, 1170, 64)             0         ['conv1d_7[0][0]']            
                                                                                                  
 dropout_8 (Dropout)         (None, 1170, 64)             0         ['conv1d_8[0][0]']            
                                                                                                  
 dropout_9 (Dropout)         (None, 1170, 64)             0         ['conv1d_9[0][0]']            
                                                                                                  
 batch_normalization_5 (Bat  (None, 1170, 64)             256       ['dropout_5[0][0]']           
 chNormalization)                                                                                 
                                                                                                  
 dropout_6 (Dropout)         (None, 1170, 64)             0         ['conv1d_6[0][0]']            
                                                                                                  
 batch_normalization_7 (Bat  (None, 1170, 64)             256       ['dropout_7[0][0]']           
 chNormalization)                                                                                 
                                                                                                  
 batch_normalization_8 (Bat  (None, 1170, 64)             256       ['dropout_8[0][0]']           
 chNormalization)                                                                                 
                                                                                                  
 batch_normalization_9 (Bat  (None, 1170, 64)             256       ['dropout_9[0][0]']           
 chNormalization)                                                                                 
                                                                                                  
 p_re_lu_5 (PReLU)           (None, 1170, 64)             74880     ['batch_normalization_5[0][0]'
                                                                    ]                             
                                                                                                  
 batch_normalization_6 (Bat  (None, 1170, 64)             256       ['dropout_6[0][0]']           
 chNormalization)                                                                                 
                                                                                                  
 p_re_lu_7 (PReLU)           (None, 1170, 64)             74880     ['batch_normalization_7[0][0]'
                                                                    ]                             
                                                                                                  
 p_re_lu_8 (PReLU)           (None, 1170, 64)             74880     ['batch_normalization_8[0][0]'
                                                                    ]                             
                                                                                                  
 p_re_lu_9 (PReLU)           (None, 1170, 64)             74880     ['batch_normalization_9[0][0]'
                                                                    ]                             
                                                                                                  
 conv1d_10 (Conv1D)          (None, 1170, 32)             14336     ['p_re_lu_5[0][0]']           
                                                                                                  
 p_re_lu_6 (PReLU)           (None, 1170, 64)             74880     ['batch_normalization_6[0][0]'
                                                                    ]                             
                                                                                                  
 conv1d_12 (Conv1D)          (None, 1170, 32)             14336     ['p_re_lu_7[0][0]']           
                                                                                                  
 conv1d_13 (Conv1D)          (None, 1170, 32)             14336     ['p_re_lu_8[0][0]']           
                                                                                                  
 conv1d_14 (Conv1D)          (None, 1170, 32)             14336     ['p_re_lu_9[0][0]']           
                                                                                                  
 dropout_10 (Dropout)        (None, 1170, 32)             0         ['conv1d_10[0][0]']           
                                                                                                  
 conv1d_11 (Conv1D)          (None, 1170, 32)             14336     ['p_re_lu_6[0][0]']           
                                                                                                  
 dropout_12 (Dropout)        (None, 1170, 32)             0         ['conv1d_12[0][0]']           
                                                                                                  
 dropout_13 (Dropout)        (None, 1170, 32)             0         ['conv1d_13[0][0]']           
                                                                                                  
 dropout_14 (Dropout)        (None, 1170, 32)             0         ['conv1d_14[0][0]']           
                                                                                                  
 batch_normalization_10 (Ba  (None, 1170, 32)             128       ['dropout_10[0][0]']          
 tchNormalization)                                                                                
                                                                                                  
 dropout_11 (Dropout)        (None, 1170, 32)             0         ['conv1d_11[0][0]']           
                                                                                                  
 batch_normalization_12 (Ba  (None, 1170, 32)             128       ['dropout_12[0][0]']          
 tchNormalization)                                                                                
                                                                                                  
 batch_normalization_13 (Ba  (None, 1170, 32)             128       ['dropout_13[0][0]']          
 tchNormalization)                                                                                
                                                                                                  
 batch_normalization_14 (Ba  (None, 1170, 32)             128       ['dropout_14[0][0]']          
 tchNormalization)                                                                                
                                                                                                  
 p_re_lu_10 (PReLU)          (None, 1170, 32)             37440     ['batch_normalization_10[0][0]
                                                                    ']                            
                                                                                                  
 batch_normalization_11 (Ba  (None, 1170, 32)             128       ['dropout_11[0][0]']          
 tchNormalization)                                                                                
                                                                                                  
 p_re_lu_12 (PReLU)          (None, 1170, 32)             37440     ['batch_normalization_12[0][0]
                                                                    ']                            
                                                                                                  
 p_re_lu_13 (PReLU)          (None, 1170, 32)             37440     ['batch_normalization_13[0][0]
                                                                    ']                            
                                                                                                  
 p_re_lu_14 (PReLU)          (None, 1170, 32)             37440     ['batch_normalization_14[0][0]
                                                                    ']                            
                                                                                                  
 time_distributed (TimeDist  (None, 1170, 32)             1056      ['p_re_lu_10[0][0]']          
 ributed)                                                                                         
                                                                                                  
 p_re_lu_11 (PReLU)          (None, 1170, 32)             37440     ['batch_normalization_11[0][0]
                                                                    ']                            
                                                                                                  
 time_distributed_2 (TimeDi  (None, 1170, 32)             1056      ['p_re_lu_12[0][0]']          
 stributed)                                                                                       
                                                                                                  
 time_distributed_3 (TimeDi  (None, 1170, 32)             1056      ['p_re_lu_13[0][0]']          
 stributed)                                                                                       
                                                                                                  
 time_distributed_4 (TimeDi  (None, 1170, 32)             1056      ['p_re_lu_14[0][0]']          
 stributed)                                                                                       
                                                                                                  
 time_distributed_5 (TimeDi  (None, 1170, 32)             1056      ['time_distributed[0][0]']    
 stributed)                                                                                       
                                                                                                  
 time_distributed_1 (TimeDi  (None, 1170, 32)             1056      ['p_re_lu_11[0][0]']          
 stributed)                                                                                       
                                                                                                  
 time_distributed_7 (TimeDi  (None, 1170, 32)             1056      ['time_distributed_2[0][0]']  
 stributed)                                                                                       
                                                                                                  
 time_distributed_8 (TimeDi  (None, 1170, 32)             1056      ['time_distributed_3[0][0]']  
 stributed)                                                                                       
                                                                                                  
 time_distributed_9 (TimeDi  (None, 1170, 32)             1056      ['time_distributed_4[0][0]']  
 stributed)                                                                                       
                                                                                                  
 time_distributed_10 (TimeD  (None, 1170, 16)             528       ['time_distributed_5[0][0]']  
 istributed)                                                                                      
                                                                                                  
 time_distributed_6 (TimeDi  (None, 1170, 32)             1056      ['time_distributed_1[0][0]']  
 stributed)                                                                                       
                                                                                                  
 concatenate (Concatenate)   (None, 1170, 96)             0         ['time_distributed_7[0][0]',  
                                                                     'time_distributed_8[0][0]',  
                                                                     'time_distributed_9[0][0]']  
                                                                                                  
 ppi (TimeDistributed)       (None, 1170, 1)              17        ['time_distributed_10[0][0]'] 
                                                                                                  
 rsa (TimeDistributed)       (None, 1170, 1)              33        ['time_distributed_6[0][0]']  
                                                                                                  
 SS3 (TimeDistributed)       (None, 1170, 3)              291       ['concatenate[0][0]']         
                                                                                                  
==================================================================================================
Total params: 2033189 (15.51 MB)
Trainable params: 2031333 (15.50 MB)
Non-trainable params: 1856 (14.50 KB)
__________________________________________________________________________________________________
…
